models/fno_model.pth (torch, 56068 bytes, 26 tensors)

linOSS_layers.0.C.weight f4 [32, 32]
00000000: f905 08bd ce9c 57bc 8a98 b4bd 9956 bb39
00000010: 43c9 a0b9 a50a 75bd 6116 8039 6a94 903d
00000020: 4aaf ccb9 a174 eb38 da71 08ba f1d9 50ba
00000030: 266c 6a3d 4968 e13d 1ce4 693d 062c e23d
00000040: 2670 81b9 3d2d d0bd 8b74 ffbc d692 843d
00000050: 4141 8db7 fb63 0ebd ae08 a2bd b163 ddbd
00000060: 321f bdbd 9d6c 4c3a 4ddd 2f3d 3dc0 2a3d
00000070: 0579 e7bd 8f41 623d 66a9 a7bd d1c3 db39
00000080: 9c0f abbc 676c 903a 4edc 823a c7d5 cfbd
00000090: b3ed c3bd a182 a33a 5e98 09b8 8b8d e6bc
000000a0: 519a 893c 8bc9 d0bd ad79 d0b8 2a89 c93d
000000b0: 8fef adbc b0d2 d13d ff8c 723c daa1 d1bd
000000c0: c14a 683d ccf4 eeb7 aec4 dcbc 53a1 ad3d
000000d0: b992 b0bd a29d 9239 bc4b 063a 1afb 8f3d
000000e0: 3511 9d3b 41cf 033d 61d0 5e3c 7cc7 b1ba
000000f0: d87a f639 5027 b6bd d38a 2b3d 2fa7 ab3d
00000100: fab5 853d 5ff9 8cbd 8144 48b9 3fd2 8cbd
00000110: 5c3c 31bd aba3 46bd d653 463c 6e7b 4fbd
00000120: 0685 e2b7 84ac 11b9 0b63 703d f06d 9ebd
00000130: af7e 86bd 3046 45bd 181a 8b3d c39c 6cbc
00000140: a8f0 bc3d 8957 713c 2a1f c5b9 6c40 9fb7
00000150: 9cf1 7a3a 8bc8 aeb9 2fd3 07ba 9681 9bb7
00000160: 96b4 d7b9 4f8e a7bd 06f0 1fbd f05c b03d
00000170: f5c6 b1bd 9f00 73b9 133d f03d c785 703c
00000180: 70cf ee38 6e0a c5bd 8051 0d3d 9059 8fbd
00000190: c301 adbb fe3f 39bc f448 8c3a 763c f2b6
000001a0: 4568 b63d 94af a2b9 a340 cf3d 6d1b 5a3d
000001b0: e6f6 67bd b35e df3c 057f 8dbd 2014 c1bc
000001c0: 3a08 d13b 173e 2e3c 0675 9c3d 2e77 1dbc
000001d0: eada 67b6 ffe0 193d 8369 e8bd b809 933d
000001e0: 7325 b7bd fa1b 2eb8 9e1c b43a bd98 21bd
000001f0: 1132 17ba 1e25 b73d 9f91 cabb 68fe 4dbd
00000200: f2d8 81bc e7e9 f0bd 67f6 e23c e7a7 03bd
00000210: ffdd 7fbd 663b 42bd fc77 413d 337e 233d
00000220: 3974 a23d e5cf 733c da03 36bc 7714 9ebb
00000230: 66c0 d53b 4a70 b53d 8569 853b 6a46 febc
00000240: 2a65 fabc c9c7 e0bd 3f8a 48b9 4e50 38bd
00000250: 41ce cdbd 9aa4 c83d a5a4 73bd 69c0 aeb8
00000260: 7a10 b63b cf91 c438 e8d3 81bd f4a6 b0bd
00000270: fbbb ac3d adb4 aeba 3817 b83d 0fad 38bc
00000280: 6797 d23b 815e 0dba 1cdb 4539 254f 58bd
00000290: 53dc 3e3c 3c10 123c 0d45 7ab6 08be 9fb9
000002a0: f849 5dbd 9838 883d 9772 9abd 7e0c b03c
000002b0: 5fc9 3abc 240f 05bd 62c3 aeba 25e4 1cbd
000002c0: 29b4 2a3a dbb5 82ba 39c7 99bd 1c72 b2ba
000002d0: d5a1 c33c aeb1 9f3c feba b639 60a7 b4bd
000002e0: 71fe 9d3a f82d 523c 0599 78bc 55e3 8c3c
000002f0: 16ed 7e3d 7aa5 1ebd 7ec7 bb36 b7a1 b43c
00000300: a365 d339 d329 013a dc32 a3b9 69ed a8bd
00000310: 52c6 d539 e189 883d 9028 d13d 5003 4a3d
00000320: 0b10 28ba ae87 f63c 529e 07bd 70c3 b7bd
00000330: 1db2 c2bd fe32 f33d d9b5 693d 451d 88bd
00000340: 5356 9a3c 242b 9e3d 96e8 f33d a5c5 c73d
00000350: 35f7 a43d 862e 17ba bd01 5abc 2618 b53d
00000360: 16c8 373d cc6b 53bd d76b d03d cf7f 053d
00000370: 6bb5 2d3d 2948 64bd 9c79 b73b d42f 59bc
00000380: c642 a73d 075e ae3a 3818 983c 391a b1ba
00000390: 7012 c33c 8447 42bc e550 083d 7099 8abd
000003a0: 7120 be39 cd18 83bd 8948 efbd ded0 aebd
000003b0: 6515 aa3d a902 2b3d 0539 de3d 4624 ae3d
000003c0: 6d52 cebd a618 85bd aef5 ac3a 4ba8 73bd
000003d0: 2b33 893d b475 9ebd e886 08bd 090f e8bd
000003e0: 9aab 3cbd dd97 b53d 884b b43d 4493 903d
000003f0: 9e0d a43d 4df7 cc3d 9047 2bbb 76da d43c
-0.03320882 -0.013159944 -0.08818157 0.0003573194 -0.0003066753 -0.059824605 0.00024430736 0.07059558
-0.00039040513 0.00011227397 -0.00052049535 -0.0007967046 0.057232045 0.11006219 0.057102308 0.11043553
-0.00024688354 -0.101648785 -0.031183502 0.06473319 -1.6838896e-05 -0.034763318 -0.07911812 -0.1081003
-0.09234466 0.0007798167 0.04293566 0.04168724 -0.113023795 0.055238303 -0.08186607 0.0004191683
-0.020881467 0.0011018635 0.0009983869 -0.10148197 -0.09566822 0.0012474844 -3.280525e-05 -0.028143665
0.016797217 -0.10194691 -9.940877e-05 0.09840615 -0.021232395 0.102452636 0.014804124 -0.10235949
0.056711916 -2.8485803e-05 -0.026949253 0.08478036 -0.08621735 0.00027964736 0.00051229796 0.07030316
0.004793311 0.032180075 0.013599486 -0.0013563479 0.00047012302 -0.08894217 0.04188044 0.08381497
0.0652885 -0.06883501 -0.00019099006 -0.06876039 -0.043270454 -0.04849593 0.012104949 -0.05065482
-2.7003243e-05 -0.00013892545 0.058688205 -0.07735813 -0.06567132 -0.04816264 0.06792086 -0.014441672
0.09225589 0.014730343 -0.00037597987 -1.8984276e-05 0.0009572746 -0.00033337282 -0.000518131 -1.8537783e-05
-0.00041142543 -0.0818144 -0.039047264 0.086114764 -0.08680526 -0.00023174517 0.11730399 0.0146803325
0.000113873626 -0.0962113 0.034501553 -0.069995046 -0.005279751 -0.011306761 0.0010702894 -7.2192006e-06
0.089066066 -0.00031029864 0.1011975 0.05324881 -0.056631945 0.027266836 -0.06908993 -0.023569167
0.0063791545 0.010634921 0.07639508 -0.009610934 -3.4549107e-06 0.03756809 -0.1134825 0.07179588
-0.0894269 -4.1510888e-05 0.0013741439 -0.039452303 -0.00057676533 0.089426264 -0.00618191 -0.05029145
-0.015850518 -0.11763363 0.027705384 -0.032142546 -0.06246757 -0.047419928 0.047233567 0.039915275
0.07932324 0.014881109 -0.011109317 -0.004824217 0.00652318 0.08859308 0.004071417 -0.031039435
-0.030565817 -0.10975606 -0.00019124987 -0.04499846 -0.100491054 0.0979702 -0.05948319 -8.332806e-05
0.0055561634 9.373167e-05 -0.06339246 -0.08625594 0.08434292 -0.0013328992 0.089888036 -0.011271729
0.00642674 -0.00053928053 0.00018869009 -0.052809853 0.011649209 0.008915003 -3.7293096e-06 -0.00030468428
-0.05402562 0.066514194 -0.075413875 0.021490332 -0.01140055 -0.032485142 -0.0013333375 -0.038303513
0.00065118313 -0.000997241 -0.07508702 -0.001361433 0.023880878 0.019493904 0.00034853065 -0.08820987
0.0012053979 0.012828343 -0.015173201 0.017198244 0.06223782 -0.03873203 5.5962582e-06 0.022049768
0.0004032078 0.0004927192 -0.00031127676 -0.082484074 0.00040774286 0.06666923 0.10212815 0.049319565
-0.0006411082 0.030093994 -0.03310997 -0.089728236 -0.09506629 0.1187496 0.05705819 -0.06646208
0.01883999 0.07723072 0.119095966 0.097544946 0.080549635 -0.00057671254 -0.0133060785 0.088424966
0.04486855 -0.051616475 0.10176819 0.03259259 0.04240934 -0.05573288 0.0055992138 -0.013256032
0.08167033 0.0013303169 0.018566236 -0.0013511843 0.023812503 -0.011857871 0.033280272 -0.06767547
0.00036263795 -0.06401215 -0.11683757 -0.08535932 0.08304862 0.041750584 0.10850719 0.08503012
-0.10074315 -0.06498842 0.0013195777 -0.05948667 0.06699213 -0.07737294 -0.03333178 -0.11330993
-0.04606209 0.08866856 0.08803469 0.07059339 0.0801041 0.100081064 -0.0026135184 0.025983077

linOSS_layers.0.C.bias f4 [32]
00000000: 17ed 23be 3355 0fbe b4e9 a83c d69e 1a3e
00000010: eb81 22be 2688 89bd 74f7 2e3e 2ea6 9abc
00000020: 311a b63d 4b42 2cbe aec1 6bbd 4b13 c0bd
00000030: 2b24 323e a391 563d aa0d dfbd d4a7 b23c
00000040: 9027 a03c fcbb 89bd b242 84bd 52d0 7dbd
00000050: 5712 143e 8ef6 09be 16db e2bd 2da2 84bd
00000060: 1f32 c83b a7d8 133d 9a3f 87ba 5d34 c4bc
00000070: a83e f9bd eb6e 12bc 65bd 6dbd f3de 073e
-0.16008411 -0.13997345 0.02061925 0.15099654 -0.15869872 -0.067154214 0.17086583 -0.018878069
0.08891714 -0.16822164 -0.057557754 -0.0937868 0.1739661 0.052384984 -0.10891278 0.021808542
0.019550115 -0.06725308 -0.064580336 -0.061966248 0.14460121 -0.1347296 -0.110769436 -0.06476245
0.0061094905 0.036095288 -0.0010318637 -0.02395075 -0.12170154 -0.008937578 -0.05804195 0.13268642

linOSS_layers.0.D.weight f4 [32, 32]
00000000: 99f2 febd c1e0 15be ceb3 c9bd a2e9 a7bd
00000010: 49ac ac3d 93de 053e badb f9bd 7087 80bc
00000020: b2f8 d43d cd6f 0e3e 9c7a 133e 11e1 83bd
00000030: da7f d7bd 2626 c73d 8f7e 84bd 3cce bb3d
00000040: 3b96 37bc 34ec d23d f412 1f3e c07c 013e
00000050: bd4c 48be 92a5 1dbe f17a d0bc d61e f6bd
00000060: c6ab 0b3e d4de 493c b15c aebd 4d43 a1bd
00000070: 3803 cebd f8a3 e13d b585 f8bd bd18 25be
00000080: 272c 3fbe aa5d de3d caba 8b3d 0e8f a3bd
00000090: 7cbf 693d 3c69 2a3e 53e5 3f3c 41e3 4bbd
000000a0: 3895 4abc 7bae 1dbd 3fcf c53d e351 dcbd
000000b0: f805 623d b1df cc3d 467d f1bd c3bb 233e
000000c0: 2b47 0b3e 4275 9ebd 8e9b 7fbd bb7d c43d
000000d0: 7798 14be cbde a23d b804 863c e096 d63d
000000e0: 6f91 e0bd 8f1a 22be bfa8 aa3d 57fb 283d
000000f0: 32ad 38be c77c f5bd c6c8 2cbe 9c50 14be
00000100: 9ac9 fbbc 91ab e63d a1c9 1e3c 339d 3c3d
00000110: aafb e73d 96a1 623d ecd1 f1bd 8581 943d
00000120: d70b 823d 0f33 4c3e ebf4 45be e752 473d
00000130: 2e40 1d3e 1b4e 45be d426 863b e8ba 083e
00000140: 27e0 c7bd b096 c03d ca85 843d 8e70 aa3b
00000150: cb28 0d3e 5b80 d13d 68c4 4a3e f76e 27bd
00000160: 91a8 e43d 2e7c 04be adf4 80bd 04c0 31bd
00000170: 1a3d 84bd 6cb7 553e 8c2b f93d 4d4a d93d
00000180: 2fbd 243e d89a 14be bb12 ef3c 975c aa3b
00000190: 6ed8 0d3c 511c a83d 9ab1 40bd ef38 8fbd
000001a0: d9ec 0a3e 03a3 35bc 2d69 f1bd 7729 b03d
000001b0: 81c9 ff3d 8599 9ebd 8fa9 3bbd 2da9 f0bd
000001c0: 96be ffbd 06f3 be3d 17a7 b1bd b7c4 dd3d
000001d0: 57a9 2ebe 841e 6cbd b719 3d3d d043 a33d
000001e0: 3757 0d3e 9f6a 093e 052c bd3d de37 bfbd
000001f0: d55f 13be d76c 0dbe 5af2 293d 2889 263e
00000200: a8d7 aebd 96a8 c53c d026 32be 8e8f d23d
00000210: 32b7 2a3e 3446 1abe 19fa 23be 4012 0f3e
00000220: 3e49 253d 1938 94bd cae0 003d c632 fe3c
00000230: 4337 0fbe 07d9 11be 7fb6 f53d fb75 aabc
00000240: 6494 cbbd 31b3 9dbd 4f04 bfbd e36b 23bc
00000250: af88 e8bd 2564 303e 73ee c33c 1f1d a7bd
00000260: 767c ecbc 5ccb 3a3d 8c1f d2bd bc4c 3d3d
00000270: 6ec0 593d 057d 1bbe 53fb e53b b403 f03b
00000280: 6cee 4c3e a908 b5bd c454 2abb 57a4 ed3d
00000290: 21b3 47be 53f4 a3ba 3df6 4c3e 4c55 bfbd
000002a0: fd81 253e 5e31 593e 285a 283e 6ed9 8dbd
000002b0: ab92 2b3e 5758 cbbd 9098 8fbd a85f 8e3d
000002c0: f9ff 833d f23f 013e 3419 223e a715 17be
000002d0: 6779 773d 9dd6 b83c cbb8 0c3e d324 943d
000002e0: cae3 abbd 7425 ecbd a48e 2e3e 9099 dfbd
000002f0: 695b cd3d 563d 07be e412 403b dd0d 3ebb
00000300: 5290 aa3d 7f5f a9bc 215a e03d 9630 92bd
00000310: c097 40bc 898e 183e 0c4b 9bbd f605 debc
00000320: a5c9 85bd aca4 5a3e 71e3 113e 518a 76bd
00000330: 899c 1fbd 3a2e 0ebe 16c7 ec3d 447e 8fbc
00000340: 46b0 533e 0407 0c3e 92f4 133e e4aa c03d
00000350: 6fa8 1fbe 0612 123c 3b84 90bc 89b5 953d
00000360: 28ba 4abd 3093 613d 645e b0bd 7208 24be
00000370: d35a 5d3d 163d a43d 2826 693d 8cde ed3d
00000380: dbc2 11bd 650d 1e3d 93f9 66bd 5c28 c5b9
00000390: 6372 afbd 83c2 e33d 7213 363e 7857 103e
000003a0: efb7 4fba fca4 1f3e 43ad 33be 6592 1ebe
000003b0: 24f9 0b3d 6011 8bbc 3979 17be 9326 97bd
000003c0: e1a5 72bd fb14 1cbe a602 fb3b 19fb ba3d
000003d0: 1837 333d bdd1 e8bd 7668 f5bd bccc 1cbe
000003e0: 843e 73bc 84be 0f3e 55f8 47bd c926 d7bd
000003f0: f336 d8bd 6180 7a3c 8be2 10be f70d 25be
-0.124486156 -0.14636518 -0.09848748 -0.08198859 0.08431298 0.13073187 -0.12200113 -0.015689582
0.10398997 0.13909836 0.1440224 -0.064394124 -0.105224326 0.09724073 -0.06469452 0.091701955
-0.011205251 0.102989584 0.15534574 0.12645245 -0.19560523 -0.15395191 -0.025449248 -0.120176
0.13639745 0.012321193 -0.08513773 -0.07874165 -0.10059208 0.11017603 -0.121348776 -0.16122718
-0.18669187 0.10857709 0.068227366 -0.0798627 0.05706738 0.16641706 0.01171239 -0.049777273
-0.012364678 -0.038496476 0.0965867 -0.10757806 0.055181473 0.10003603 -0.11791472 0.15989594
0.13601367 -0.07737209 -0.062404208 0.09594294 -0.14511286 0.07952651 0.016359672 0.10477996
-0.10965239 -0.15830444 0.08332967 0.04125532 -0.18034819 -0.1198669 -0.16873464 -0.14483875
-0.03073578 0.112631924 0.009691627 0.046048354 0.11327298 0.05532988 -0.118076175 0.072512664
0.063499145 0.19941352 -0.1933171 0.048663046 0.15356514 -0.19268076 0.004093984 0.13352549
-0.097595505 0.09403741 0.06470831 0.005201406 0.13785093 0.1022956 0.19801486 -0.04087731
0.11164964 -0.12937996 -0.06296668 -0.04339601 -0.06456967 0.20870751 0.12166509 0.10609875
0.16087793 -0.14512193 0.029183736 0.005199026 0.008657558 0.08208526 -0.047044374 -0.06993281
0.13566913 -0.011086228 -0.11787639 0.08601659 0.12489606 -0.07744125 -0.045816 -0.11751018
-0.12487523 0.09323697 -0.08674448 0.10828536 -0.17056786 -0.05764629 0.0461671 0.079719186
0.13802801 0.13419579 0.09236912 -0.09336828 -0.14392026 -0.1381105 0.04149089 0.16263258
-0.08537227 0.02412824 -0.17397618 0.10281287 0.16671446 -0.15065843 -0.16013373 0.13971806
0.040353052 -0.07237262 0.031464376 0.03103007 -0.13985924 -0.14242946 0.11997699 -0.02080821
-0.09940413 -0.07700194 -0.09326994 -0.009974453 -0.11354195 0.17225702 0.023917412 -0.08159851
-0.028867941 0.045604095 -0.10259923 0.046215758 0.05316203 -0.1518441 0.0070184856 0.00732466
0.20012826 -0.088395424 -0.0025990466 0.11603611 -0.19501926 -0.0012508727 0.20015807 -0.09342441
0.16162868 0.21210238 0.16440642 -0.06926237 0.16755168 -0.09928959 -0.07011521 0.06951839
0.06445307 0.1262205 0.15829927 -0.14754353 0.060418513 0.022563273 0.13742368 0.07233586
-0.08393057 -0.11530581 0.170466 -0.109179616 0.10027201 -0.13206992 0.0029308135 -0.0028999962
0.08328308 -0.020675419 0.10954691 -0.07138173 -0.01175493 0.14898123 -0.075826734 -0.027102452
-0.06532601 0.2135188 0.14246918 -0.060190503 -0.038967643 -0.13884822 0.1156141 -0.017516263
0.20672712 0.13674551 0.14448765 0.09407595 -0.15591596 0.00891543 -0.017641177 0.07310016
-0.04949394 0.05507201 -0.086117536 -0.16018847 0.054041695 0.08019464 0.056921154 0.11614713
-0.03558622 0.038586993 -0.056390356 -0.00037604838 -0.085667394 0.111210845 0.17780855 0.14095867
-0.00079238316 0.1559028 -0.17546563 -0.15485533 0.034173146 -0.016976058 -0.14792337 -0.07380404
-0.059240226 -0.15242378 0.007660228 0.09129924 0.043753713 -0.113681294 -0.11982815 -0.15312475
-0.014846448 0.1403752 -0.048820812 -0.105054446 -0.10557356 0.015289397 -0.1414892 -0.16118608

linOSS_layers.0.D.bias f4 [32]
00000000: 17a0 46bb cf67 d0bd af41 09be ea5e ef3c
00000010: 0985 bebd 97d1 0e3e 7895 fcbd d345 213e
00000020: cd87 fa3d 385b 203e 4615 5cbd db21 e6bd
00000030: b471 bdbd 280a 013e 29f8 8abd 2210 e9bc
00000040: d99e b9bb fb97 123d 1f90 debd f591 0e3e
00000050: 8b7c 00be bdd6 293e 3745 5dbd 278c b6bd
00000060: 9d2f aebc ae09 253d ed19 20bd f09a 21be
00000070: 6ae1 e03d b29e 4a3e c784 d13d fabf 263e
-0.0030307823 -0.1017605 -0.13403963 0.029220063 -0.09302718 0.1394714 -0.123331964 0.15749292
0.12232933 0.15659797 -0.053731225 -0.11236926 -0.09250203 0.1260153 -0.06785614 -0.028450076
-0.005664688 0.03578947 -0.10867333 0.13922866 -0.1254751 0.16585822 -0.054021087 -0.08913451
-0.021262938 0.040292434 -0.039087225 -0.1578176 0.10980494 0.197871 0.102304034 0.16284171

linOSS_layers.0.B.weight f4 [32, 32]
00000000: 4625 f43c 4b3c b03b 5be0 8b3a 5e81 0638
00000010: 067a 403d 518d 6a38 719c 4abd b97b 8f3c
00000020: 53dc 6a3b 3039 8e3c 5fd5 31b9 3124 1c3a
00000030: 076e dfb9 6ce2 573b b765 a2bd 810d dcbd
00000040: 1cc3 863c f244 2fbd a30d 03ba a1b7 963b
00000050: 7f68 5eba cd69 703d ff07 0dba 45bc f93a
00000060: 8f26 0cba 1cb3 8aba d49b 7c3c a705 853d
00000070: 4c80 e1bd 584f b8bc c1d4 cfbd db0d a3bc
00000080: 7cab 583d 5e7f e1bd ef5d cfbd 322e 443d
00000090: d0e0 4bbd 94c2 953d 4325 093c 8d40 0f3b
000000a0: f0cd ab3d 8d05 dabd f240 963d 2640 223c
000000b0: 52e1 80bd 81e2 cd3a 0096 9bbb f43a a6bc
000000c0: 1e0b 84b9 2a26 fcbc 60c9 c73d 31f8 c23d
000000d0: 3c7a 9bb9 8d1e ccbd 2bd4 b638 b981 6838
000000e0: 994d 803d f2a2 bb38 5b09 c63b c8e7 613b
000000f0: 1071 3cbd b6e4 5fbd a993 cebd 4745 9cb7
00000100: 4990 053c 5a12 5db9 adac e93d 9e5e 963a
00000110: 98c3 75bd d491 b2ba 7958 a5bb 9195 433a
00000120: 7b11 e93d 41b1 efb8 0379 c73d 11e2 23ba
00000130: 1d4e 84bc 5f8d 963d 28ec 3dbd 2cb3 9d38
00000140: 63b0 9b39 a4c7 df3c b7bd d8bd 85a3 7db9
00000150: 24b0 3bbb a1ee 723d 192f 3b3c ca87 a53c
00000160: 7a12 533d c55f 7fb9 8439 b336 4b89 ae3d
00000170: b4d6 afbd 071c 88bd ae05 8e39 910a a0bc
00000180: 4ffb 39b9 59eb ca3d d700 2eb7 7924 c0bd
00000190: 3fee e6bc bc3a d73d 851c 5ab6 0cfa d2bc
000001a0: ce62 e13c 2a98 8eb9 4f54 cabd 3432 b93d
000001b0: 1c9a 393d b0f1 c53d 79e5 d13c eeaa 3cbc
000001c0: 7699 26bc b96e 063d 1c27 8c3a 16fd 83ba
000001d0: ed14 e9bd 00a4 0cbd 5da8 833c bfba 7e39
000001e0: 33f7 03bd 8406 c7bd 9e3b 6a3d 695c 5d3a
000001f0: 20de edbd e098 e73d 5bb6 073d def9 50bd
00000200: 1267 95bd 0c23 e83d 9813 1736 6d2e 53bd
00000210: b6cb 413d 439e 123a 5665 0939 51da 1dbd
00000220: db2a bebd 86ab 7dbd 3c4c 5ab9 1f5f 93bd
00000230: 7af4 ee3d 9296 c0b6 c89c 90bc 8afa 9e3c
00000240: e50b ccbd aab7 17bd eb5a 883c 011a bfbd
00000250: 6443 0f3d 90d8 023a 8b8d b9bd 2a5e f1bd
00000260: 4ed6 113c ccab fd3c 14d7 673a da3b cbbd
00000270: 3565 42bd 08ed a039 17cd 9e36 89ca 2a3b
00000280: 93d9 b1ba 2551 7b39 fd48 223d ac71 e93d
00000290: a234 b93d 89d1 d33d 2166 3dbc da6a 45bc
000002a0: f9ff 40b9 eb37 d63b f73c aa3c 0cff 0bba
000002b0: cd45 71bd eaef 9dbd 2ade e63d 3ca6 77bb
000002c0: 189a 323a 85e1 5abd 5290 0dbd 1f3c 0735
000002d0: 5ce2 bd3c 8b19 9fbc 91bb 7fbc 0f05 ab3d
000002e0: 1801 1abd bf05 9bbd 0b78 a23a 73ec e23d
000002f0: a3ea e7b8 81ef 4cba cb64 9c39 2c01 633d
00000300: 6e7e 0dbd 1e95 833d 0d87 893a a92f 2e39
00000310: a695 48ba 027d 5dbd 7cda 993d dda3 203d
00000320: 8186 a7bd 43b5 dbbd 0a14 33bb a4d3 7d3d
00000330: 0f5d 0bbd 6a36 da3d a514 12bd a2ed d1bd
00000340: 5ab6 d43c 4f25 55bd 37fb a53a 24c1 09bc
00000350: fd38 dfb9 2cb6 c6bd add1 d6bd 4370 c83c
00000360: b488 cdb8 9365 54bd 0618 c0b8 fc3e d5bd
00000370: 128f 623b 7340 003d d35f e93d 42de b2bd
00000380: d4c9 3b39 151a 2c3d f78e d63d 4612 8fbd
00000390: 3975 c23c 0fdf b33c b527 543d 9c7d 87bd
000003a0: 57cf 8f3d 7065 cfbc c4b1 5cbd 449a 73ba
000003b0: e337 be3d 5d5f 7cbd bd54 263d f9bc 72b8
000003c0: 8d20 183c 44d0 a63d 413a 843b cc46 b8bd
000003d0: 8d73 eabb 6a48 74ba bef9 bcbd 8241 b2ba
000003e0: b756 28bd adb8 713a 5fd2 683c 506e afbd
000003f0: 409d 6ebd 5dd6 e83c 1d2b f0bd d211 873d
0.02980293 0.005378281 0.0010671722 3.2068572e-05 0.04699137 5.592156e-05 -0.0494656 0.01751505
0.003583689 0.017361253 -0.00016959522 0.00059563207 -0.0004261585 0.0032941354 -0.07929557 -0.10744763
0.016450457 -0.04279036 -0.00049992854 0.004599527 -0.0008484199 0.05869465 -0.00053799147 0.0019053301
-0.0005346322 -0.0010581943 0.015418012 0.06495219 -0.11010799 -0.022498772 -0.101480015 -0.019904068
0.052897915 -0.110106215 -0.10125338 0.047895618 -0.049774945 0.073125035 0.0083707 0.0021858544
0.08388889 -0.1064559 0.07336606 0.0099029895 -0.062929764 0.0015707762 -0.004748106 -0.020291783
-0.00025185285 -0.030779917 0.09755206 0.09519995 -0.00029654976 -0.099667646 8.717956e-05 5.5433924e-05
0.062648006 8.947206e-05 0.0060435957 0.0034470428 -0.046006262 -0.054661475 -0.10086758 -1.8628909e-05
0.008152076 -0.00021083039 0.114098884 0.001147229 -0.060000986 -0.0013623782 -0.005045947 0.0007460947
0.11380287 -0.00011429424 0.09739878 -0.0006251643 -0.016150529 0.07351183 -0.046367794 7.519717e-05
0.00029695322 0.027316876 -0.1058306 -0.00024188876 -0.0028638924 0.059309606 0.011424803 0.02020635
0.051531292 -0.00024354372 5.3413114e-06 0.0852228 -0.08585873 -0.06645971 0.00027088582 -0.019536288
-0.00017736595 0.0990817 -1.0371404e-05 -0.093819566 -0.028189776 0.105092496 -3.2501132e-06 -0.025753997
0.027512934 -0.00027197722 -0.09879362 0.090427786 0.045312986 0.09665239 0.025622116 -0.011515362
-0.010168424 0.032820437 0.0010692808 -0.0010069932 -0.113809444 -0.03433609 0.016071493 0.00024292896
-0.03221817 -0.0971804 0.05718576 0.0008444251 -0.116146326 0.113084555 0.033132892 -0.051019542
-0.0729505 0.1133481 2.2512158e-06 -0.051557947 0.047313415 0.0005593041 0.00013103089 -0.03853828
-0.09285518 -0.061931156 -0.000208185 -0.07195877 0.11667724 -5.7395746e-06 -0.017652884 0.019406576
-0.09963206 -0.03704039 0.016644916 -0.09331132 0.034976378 0.0004991377 -0.090602 -0.117855385
0.008901192 0.030965708 0.0008844 -0.09923525 -0.0474598 0.0003069418 4.7326425e-06 0.0026060662
-0.001356887 0.00023967454 0.03962039 0.11398634 0.09043242 0.103427 -0.011559994 -0.012049401
-0.00018405904 0.0065374277 0.020781023 -0.0005340434 -0.058904458 -0.077117756 0.11272843 -0.0037788292
0.0006813123 -0.05343773 -0.034561463 5.0378907e-07 0.023179226 -0.01942136 -0.015608684 0.08350574
-0.0375987 -0.07569455 0.0012395395 0.11080255 -0.00011058643 -0.0007817671 0.00029829735 0.05542104
-0.0345444 0.06424926 0.0010492519 0.00016611688 -0.0007651694 -0.054074295 0.07512376 0.039218772
-0.081799515 -0.10727932 -0.0027325177 0.061969414 -0.034024294 0.1065491 -0.03566422 -0.10250403
0.025965858 -0.052037533 0.0012663369 -0.008407865 -0.00042576334 -0.09702715 -0.10489211 0.024467593
-9.800625e-05 -0.05185468 -9.159748e-05 -0.10412404 0.003457014 0.031311464 0.1139523 -0.087337986
0.00017908897 0.04201706 0.10476487 -0.06985907 0.023737537 0.021956949 0.05179568 -0.06615755
0.07021969 -0.025316924 -0.053880468 -0.0009292702 0.09288003 -0.061614383 0.040608156 -5.787329e-05
0.009285104 0.08145192 0.0040352647 -0.089978784 -0.007154888 -0.0009318652 -0.09227322 -0.0013599845
-0.041098323 0.0009220939 0.014210313 -0.08565962 -0.058255434 0.028422529 -0.11726973 0.06595196

linOSS_layers.0.B.bias f4 [32]
00000000: c067 4d3d 4247 c7bd 5558 c0b8 60b5 d1bd
00000010: 3b31 a13d 6725 a93a 6582 9ab7 8ce9 5bbd
00000020: 8ecc 2cbd 35bb 00ba e37f b63d 5800 12bd
00000030: 7082 073a 1299 d23d 7f6f cf3d 3017 863a
00000040: e2e2 dd3d 8d05 773c 8c8d d43d a6df eb38
00000050: ab57 bebd 4468 86bb 0636 e63b 60ea 253d
00000060: 08b4 f2bd a10a a63d 18bd cfbd d7c9 483d
00000070: 2b54 ef3d 6ccf ed3a a746 9c3a de50 313d
0.05014777 -0.09730388 -9.1717266e-05 -0.10239673 0.07870718 0.0012904824 -1.841895e-05 -0.053689525
-0.042187266 -0.00049107085 0.08911111 -0.03564486 0.0005169278 0.10283102 0.10128688 0.0010230299
0.1083429 0.015077007 0.103785604 0.00011247331 -0.09294065 -0.004101785 0.007025483 0.04050672
-0.118507445 0.08107496 -0.10143489 0.049020614 0.11685976 0.0018143482 0.0011922912 0.04329001

linOSS_layers.1.C.weight f4 [32, 32]
00000000: 97bc dabb a22b 99bd 0375 8ebd f886 fa3c
00000010: d022 a13d 3b62 d3b8 574b e9bd e9e4 edbd
00000020: 5a99 bcb9 fa35 2a3d b938 7fbd 02f1 7b3b
00000030: 65a7 2ebd b57f b23d 8bfd 4dbb a37a 113a
00000040: f1b6 c8bd 8740 cfbd 0ad8 d638 ae1e adba
00000050: 5b81 2a3d b0c8 c7bd 9009 b3ba 0f32 7f3a
00000060: 6d3d 493d 1a14 e7bc f2d7 de3b 9618 a83c
00000070: 50cc 113d e8f6 48bc 5e41 1d3c ae43 843a
00000080: 1a4d 7a3b 4042 5cbd 76df abbd 5806 b4bd
00000090: d988 65bd be5a c0bc 87c4 8eba ce1c 4d38
000000a0: 0db0 3dbd 819c 8d37 b756 11bc 124a 5d3d
000000b0: bafc b5bd 1607 81bc cf08 6fbd edca 86b9
000000c0: 9de5 66b9 79c9 3439 cf48 f13d c210 8fbc
000000d0: 6abe 793a 5c6d 383b 99d5 b93d 6b24 9f3d
000000e0: 5086 8d38 c274 8bbc 04d1 2a3c aae9 653d
000000f0: de49 93b7 4747 303d 3b2d b43d 138d 27bd
00000100: 4287 a9b8 b6e0 d0bd 9f29 1c3a ab7d 8f3d
00000110: fff2 8a3a 57ad a9ba 4fb7 183c ae4b 91b7
00000120: 47e6 a53d 0a2d 84ba 8103 eebd d0bf b6bd
00000130: 3dc7 f0bd 2af7 f8b8 e7b3 2a3d c8f4 143a
00000140: 7774 d03d 1d6b ae3a 983f 3cba 0561 d13d
00000150: cc38 143d d15a c3b8 b60b e73d ea85 50bd
00000160: 34d1 843c 6d81 673d 5727 5fbd cf9e debd
00000170: 3f5e 193c 17ab 8cbc f048 13bd 6d9e 70ba
00000180: eee1 93bd a88e d03d eb36 0cba 1125 1abc
00000190: 3350 ba3d a7ba 9a3b 011a 97ba c94c 02bd
000001a0: ba76 e33d 7981 f7bb a4d3 b83d e141 93b9
000001b0: b758 113d c432 8c3d 8679 9abd a54b 7fbd
000001c0: 3c1a f0bd 0272 923d ebb7 c23d deea 79bc
000001d0: 73ba 09bd 6f0c b3ba c543 293d 36fd f13a
000001e0: 385b 113a 0595 6abd a210 c13d 946b 72bd
000001f0: ca21 e8bd 0abc a3bc 5e3f 6cba 8dee 833c
00000200: 1808 953c 525d 44bd bdb6 91bc 22a1 dabc
00000210: 8533 06bd bd83 bcbd 84ae 39ba c639 c5bb
00000220: eeca e6bd ec72 47bd b097 52bd b440 cabc
00000230: c748 5ebd 11e4 b33a f82f 6a3c 91ff b0bd
00000240: 5829 07ba 2d93 babb d490 17bd 88f9 0eb9
00000250: fe15 c1bc 2869 bc38 dfa5 92bd 62b7 99ba
00000260: 9725 d73d 83bc b73d a430 dfbc 92b0 023c
00000270: d9af e0bd 3566 bc3d 54d4 f2bd b786 cebd
00000280: eaee cfbd 41da dabd 6ff0 34ba d96a 5cbb
00000290: bcdb a63a 9b48 8f38 457d aab7 d69e 70bc
000002a0: d7b9 4dbd 51c2 babd 5f3f 133d fd61 1abd
000002b0: 5213 473a fe1d 073d 0ba5 faba b85a 15bb
000002c0: 8264 7fbd 7e2e c1bd 8f77 033d c087 b6b9
000002d0: b1a7 653d 2caf 4738 bf33 3636 76c0 d1bd
000002e0: cb0a 0738 81af c2b9 5b97 3ebd f693 3cba
000002f0: db23 7cb9 a495 9dbd 4748 b2ba e3af 893d
00000300: ba0c 7cba 36fc e33d b30f f63c 3ccc a9bd
00000310: 021a 9dbc d66b b3ba 6f4e e33b 6c75 efb8
00000320: 5863 af3d 2047 0736 24b5 68bd 8d79 7cbc
00000330: 4ce8 b8bd 78cc 91bb 54ee 0a3d fd01 0137
00000340: 91a6 e3bd a494 c4bd 726b 733c d1ee c8bd
00000350: edeb acbd 39af 4fbd a97a e33d 08a8 aebb
00000360: 9732 b3bc 04a0 82bd 140c 6d3d 33ca ac3a
00000370: 04af 8fba 5277 a23a 5fc0 a63b 644e 6d3d
00000380: cd1e 7eb9 ad4c c539 eaa4 aeb7 06c5 a5bd
00000390: b141 10ba 6eff e23d ee1f 8ebd 3637 67bd
000003a0: 6d53 f1bd 7543 d4b8 e533 ddbd 252c 18bd
000003b0: d74f d83d 1a6e b53c 2096 253d b23d b4ba
000003c0: 8024 bfbd 4b65 f4bc 6615 b1bd 5c97 5ebd
000003d0: 48ca 433c 9921 97bb 5e01 ec3d cd19 95bd
000003e0: 056a c0bd d796 ef3d 3e13 c4bd be8b bf3d
000003f0: a24a 7a3b 96cb d4bd d492 c63d 3d89 86bb
-0.0066753137 -0.074790254 -0.06955912 0.030581936 0.07867968 -0.00010079561 -0.11391323 -0.11615927
-0.0003597241 0.041555382 -0.062309954 0.0038443212 -0.04264011 0.087157644 -0.003143164 0.00055495853
-0.09800518 -0.101197295 0.000102445556 -0.0013207996 0.04162727 -0.09755075 -0.0013659466 0.00097349373
0.049130846 -0.028207827 0.006800645 0.020519536 0.03559524 -0.012265898 0.009598104 0.0010090971
0.0038192929 -0.05377412 -0.08392231 -0.087902725 -0.05603871 -0.02348077 -0.001089231 4.8902635e-05
-0.046310473 1.6881388e-05 -0.008870772 0.054025717 -0.088860944 -0.01575045 -0.05835801 -0.00025709663
-0.00022020047 0.00017241192 0.11781465 -0.017464045 0.000952697 0.0028141355 0.09073944 0.07770618
6.7484216e-05 -0.017023448 0.01042581 0.056131043 -1.7558163e-05 0.043036725 0.087976895 -0.040906023
-8.083742e-05 -0.1019911 0.000595713 0.07006391 0.0010600983 -0.0012945336 0.009321048 -1.7320588e-05
0.081005625 -0.0010084223 -0.11621762 -0.08923304 -0.11756752 -0.000118715994 0.041675474 0.0005682227
0.10178464 0.0013307069 -0.0007181107 0.10223583 0.03618698 -9.3152405e-05 0.112815306 -0.05090896
0.016213037 0.056519914 -0.054480877 -0.10870134 0.009360849 -0.017171426 -0.03595823 -0.0009178881
-0.07220827 0.101834595 -0.00053487596 -0.009408251 0.09097328 0.0047219577 -0.0011528136 -0.03181151
0.1110663 -0.007553276 0.09024742 -0.00028087109 0.035484996 0.0684562 -0.0754271 -0.062328
-0.11723754 0.071506515 0.09507736 -0.015253751 -0.033625077 -0.0013660322 0.041324396 0.0018462304
0.00055449037 -0.057271022 0.094270006 -0.059184626 -0.1133457 -0.019987125 -0.0009012128 0.01610496
0.018192336 -0.04794056 -0.017787332 -0.026688162 -0.032763977 -0.092048146 -0.0007083195 -0.00601885
-0.112691745 -0.048693582 -0.05141419 -0.024689056 -0.054268625 0.0013724585 0.014293663 -0.086424954
-0.0005156002 -0.0056938143 -0.037003353 -0.00013635133 -0.023570057 8.9841255e-05 -0.07160544 -0.0011727626
0.105052166 0.08971503 -0.027244873 0.007976668 -0.1097104 0.09199182 -0.118569046 -0.100842886
-0.10152991 -0.1068616 -0.00069022825 -0.0033633022 0.0012730281 6.832295e-05 -2.0323912e-05 -0.014686307
-0.05022606 -0.09119094 0.035949107 -0.037691105 0.00075941265 0.032987587 -0.0019122673 -0.0022789668
-0.06235171 -0.09432696 0.03209644 -0.00034814887 0.056068126 4.760844e-05 2.7150234e-06 -0.10241787
3.219656e-05 -0.00037133324 -0.046531063 -0.0007193679 -0.0002404595 -0.07694557 -0.0013601863 0.06723001
-0.00096149335 0.1113209 0.030036783 -0.08290908 -0.01917744 -0.0013688754 0.0069368402 -0.000114182796
0.0856387 2.0157968e-06 -0.056813374 -0.015409839 -0.09028682 -0.0044494234 0.033918694 7.689462e-06
-0.111157544 -0.095986634 0.01485716 -0.098111756 -0.08443437 -0.050704215 0.1110738 -0.0053300895
-0.021874709 -0.06378177 0.057872847 0.0013182819 -0.0010962193 0.0012395179 0.0050888504 0.057936087
-0.00024234802 0.00037631896 -2.081921e-05 -0.0809422 -0.0005502953 0.110838756 -0.06939684 -0.056449138
-0.1178349 -0.000101215126 -0.10800914 -0.037151475 0.10562103 0.022147227 0.040426373 -0.0013751297
-0.09333134 -0.029833457 -0.086466596 -0.054343566 0.011950083 -0.0046121594 0.11523698 -0.07280312
-0.093952216 0.11698692 -0.09573983 0.093528256 0.0038191457 -0.103903934 0.09695974 -0.0041057155

linOSS_layers.1.C.bias f4 [32]
00000000: c234 203d 56e7 b0bd 9113 723d 0f27 3a3e
00000010: bcbe 953c b5c6 a6bd 88f3 c23c 7f58 18be
00000020: 5d95 d0bd e365 bfbc 607b e7bd de01 0f3e
00000030: f327 563d 3e7c ec3d d412 65bc 8dc3 0dbd
00000040: 29ef 813d 483b 2dbd 421c a5bc b636 2fbe
00000050: d578 0d3e 46e2 1a3e 1c86 21be bad7 77bd
00000060: f61f 05be 73e5 b2bd a2c9 033e ad22 e73d
00000070: c333 c8bc bca0 bc3d f017 783d ed20 ac3d
0.039112814 -0.08637874 0.05910069 0.18178962 0.018279426 -0.08143369 0.023797765 -0.14877509
-0.10184739 -0.023364013 -0.11302829 0.13965556 0.052284192 0.11547135 -0.01398154 -0.03461032
0.06344444 -0.042292863 -0.020155076 -0.17110714 0.13815625 0.15125379 -0.15773815 -0.060508467
-0.13000473 -0.0873517 0.12869886 0.11285911 -0.024438744 0.09210345 0.060569704 0.084047176

linOSS_layers.1.D.weight f4 [32, 32]
00000000: f564 b8bd 4869 53bb 5e69 18be a1ec 14be
00000010: cd5a d1bd 3c4e 0fbd a8cc 0cbe ceb0 2ebc
00000020: c514 2d3d 87bf dfbc 67da 753d 7717 cc3d
00000030: 804c 70bc f693 05be a797 24be a604 0dbe
00000040: d3d0 89bd 74d7 e6bd eed3 8fbd 4992 643d
00000050: 3375 083d 1063 f93d a2e1 503e fee3 86bd
00000060: c752 c9bd 744a 3f3d 82ad d2bd 903c c73d
00000070: b0cc d7bc 7b36 e8bd 580d d4bd ef13 c5bd
00000080: 0059 223d bf4e 0e3e 63e2 dc3d 1da7 96bc
00000090: 3c09 bfbd b461 86bd 4d50 07be 140c 66bd
000000a0: 0d8e 51be 2800 7c3d 8290 1bbe b759 d1bd
000000b0: 5e0a b33d af0b 01be a43d 1e3d 857d 1e3e
000000c0: 1612 113e 2215 a93d f2b0 5fbd f0f5 d93d
000000d0: 77e4 b7bc 4031 3cbd 3bcf 06bd 26c5 183d
000000e0: 6649 163e d7a4 8d3d 35eb bd3d 9e6e 4c3c
000000f0: 7cc6 93bc ffbc 7a3d 41c9 153d f88b 2cbe
00000100: 763e ad3d 4219 0cbe 188a 92bd 50bd 253d
00000110: e00b 3fbc 293a 033d ba7e 1ebd bf35 563d
00000120: 94b9 3c3e cf8e 873d ef66 2d3d 63df 59be
00000130: 6fa5 ea3d f75a 5f3c ea1c 563d 6628 163d
00000140: c61c 8dbc 6248 ee3c 1a3f 173e 1952 a73d
00000150: 4d1b 1ebe 8229 bc3d 34e3 4f3e 54ee 8abb
00000160: 42fc 23be 106f 8e3d f711 d8bc 9a45 df3d
00000170: cb7e 46be 8e1c bf3d 4a7a 2b3d 55a2 303d
00000180: e141 313e 8a7e 10bd e6dc e0bd 8102 ebbd
00000190: 54a0 e6bd c473 8d3c 7dd7 d33d 89b3 8dbd
000001a0: d48c 56bd 65f9 f13d 420a 38be ed42 983d
000001b0: 8c66 45bc bc97 a03d fbd0 ea3d 7593 0c3c
000001c0: a442 a43d 020c 90bd 9aa0 e23d c438 693d
000001d0: 6675 7cbd 146e cc3c 03e4 8e3c 4cfa f73d
000001e0: e995 873d d9b1 1f3e 5b22 21be 621c 203e
000001f0: fb66 3e3d a3f9 fe3d 0077 a23d 6284 133e
00000200: 2c11 e13d c124 263d a97f 31be bd0d 443e
00000210: 7050 f93b 7fc3 8fbd 37e7 8e3d 8671 003e
00000220: 3e43 fa3a 4b10 7abd 7fd7 eabc 919a 613e
00000230: ff1b b23d 5726 183e a95a fc3d 7e60 9abd
00000240: c572 3e3b 684d 39be b291 dc3d c4cf 00be
00000250: 9f91 16be c7b9 05be 5d78 993d 008a da3c
00000260: 08cb d83c 6ad8 afbb 3f15 bfbd 5fc5 56bd
00000270: 8384 eebd 8efe aebd c1ad 18be ac46 fabc
00000280: c431 3f3e 1f3a 48be bcb9 db3d f210 1abe
00000290: 7cee d6bd 7fb9 c13c 3ea9 5c3d 3ef9 fd3d
000002a0: 3359 063c a5c0 e3bc 9f53 8ebd 87fc 37bd
000002b0: edb3 f6bd d4f4 2fbe 57e1 a7bd f768 213b
000002c0: eb91 bfbd 623f aebd 808d fa3d b89f fd3d
000002d0: a574 a5bd ffe0 3dbe ca20 25bd 4091 893d
000002e0: ff04 2a3d ea91 13bd 9501 08be 445a 67bd
000002f0: aa1d 2cbd 5a2d 053e e266 76bd 9956 043e
00000300: 89a0 a63d 2ca7 adbd 8e8d 02be bb1f 163e
00000310: fb61 a1bd 67a5 ce3d 4adf 4dbd aa41 51be
00000320: 92dc f0bd 0e2b 29bd c42e 8cbd f45f acbd
00000330: 1fd6 2a3e be0e 55be f9ad 913d 2312 033e
00000340: 287c 0d3d b91c a0bd 815d cbbb b51c 18bc
00000350: d720 333d d2a4 ccbd 600d d8bc 060e cabd
00000360: 9eae 45be 932e c93d b605 efbd 6a78 bcbd
00000370: fa96 47bc 8b96 383e 80bf 4c3e 638c bcbd
00000380: 4e0a 4e3e f00f dc3d 480a 233e 5322 08bb
00000390: caa7 dc3d 3742 a43d f3b8 c7bd 6537 ebbd
000003a0: 53b0 143c e15a b1bd 23b0 83bd eb8f be3d
000003b0: ff55 b33d dc22 f13d 9832 43bc 5de4 d0bd
000003c0: 8026 103e bcd4 133d 4729 9a3c 5219 e7bd
000003d0: 4f90 443d 9c54 2bbe ae69 283e d91f 123e
000003e0: 920a 4c3d 6ea4 223e 4211 013e 44a3 9ebd
000003f0: 4f38 27be ba4b 6a3d f6d3 103e 7f6f 4f3b
-0.09003631 -0.0032258797 -0.14883944 -0.14543392 -0.10222397 -0.03498672 -0.13749945 -0.010662271
0.042256135 -0.027313007 0.060022738 0.09965413 -0.0146666765 -0.13044724 -0.16073476 -0.13771304
-0.06729283 -0.11271563 -0.07022844 0.05580357 0.033314895 0.12177098 0.20398572 -0.06586455
-0.09830242 0.046701863 -0.10287 0.09728348 -0.02634272 -0.11338516 -0.103541076 -0.09622943
0.03963566 0.13897227 0.10785367 -0.018390233 -0.09327933 -0.06561604 -0.13214226 -0.056163862
-0.20464344 0.061523587 -0.15191844 -0.1022219 0.08742212 -0.12602113 0.038633004 0.1547757
0.14167055 0.08255984 -0.054612108 0.10642612 -0.022447808 -0.045945406 -0.032912474 0.03729739
0.14676437 0.06916206 0.09273378 0.012477545 -0.01803898 0.061215397 0.036568884 -0.16850269
0.08459179 -0.1368151 -0.071552455 0.040463746 -0.011660546 0.032037888 -0.038695075 0.05229735
0.18430167 0.066190355 0.042334493 -0.21276622 0.11457335 0.013632528 0.05227367 0.03665962
-0.017225634 0.02908725 0.14770165 0.08169956 -0.15440102 0.091876045 0.20301515 -0.0042398367
-0.16014197 0.06954777 -0.026375754 0.10901947 -0.19384305 0.09331618 0.04186467 0.043123562
0.17310287 -0.035276927 -0.10979633 -0.11475087 -0.11261049 0.017267115 0.103438355 -0.06919009
-0.052380398 0.11815146 -0.17972663 0.0743464 -0.012048375 0.07841441 0.11465641 0.008580078
0.08020523 -0.0703354 0.110657886 0.0569389 -0.061635397 0.024954833 0.017442709 0.12108287
0.0662039 0.15595187 -0.15735762 0.15635827 0.04648493 0.12449958 0.07932854 0.14405969
0.109896034 0.040562395 -0.17333855 0.19145866 0.007608466 -0.0701971 0.069776945 0.12543306
0.0019093526 -0.061050694 -0.02866721 0.22031619 0.08696746 0.14858375 0.123219796 -0.07537936
0.0029060107 -0.18095934 0.10769977 -0.12579256 -0.14703988 -0.1305915 0.074936606 0.026677132
0.026464 -0.0053663747 -0.09330224 -0.05243432 -0.11646368 -0.08544646 -0.14910032 -0.030551277
0.18671328 -0.19553421 0.107287854 -0.15045527 -0.10494706 0.023648022 0.05387234 0.12401055
0.008199978 -0.027801821 -0.06949543 -0.044918563 -0.12046037 -0.17183238 -0.08197277 0.0024629214
-0.093540035 -0.08508183 0.1223402 0.123839796 -0.08078889 -0.1854286 -0.040314473 0.06717157
0.04150867 -0.036027826 -0.13281853 -0.05648257 -0.042020477 0.13005581 -0.06015671 0.1292366
0.081360884 -0.08479151 -0.12749311 0.14660542 -0.078800164 0.10090142 -0.050261773 -0.20435205
-0.117608204 -0.041300826 -0.06844857 -0.08416739 0.16683243 -0.20806405 0.07113261 0.12799887
0.034542233 -0.078179784 -0.006206215 -0.009284188 0.04373249 -0.099923745 -0.026373565 -0.09865956
-0.19304892 0.098233365 -0.11671011 -0.09202655 -0.012181992 0.18026178 0.19994926 -0.09206464
0.20121118 0.10745227 0.1592189 -0.0020772412 0.10774191 0.08020442 -0.09752073 -0.11485175
0.009075242 -0.08659912 -0.0643008 0.09304794 0.08756637 0.11774227 -0.011913918 -0.10199807
0.14077187 0.03609155 0.01881851 -0.11284126 0.047989186 -0.16731495 0.16446564 0.14269961
0.049814768 0.15883037 0.1260424 -0.07745984 -0.16330074 0.057201125 0.14143357 0.003165215

linOSS_layers.1.D.bias f4 [32]
00000000: ccbd 28be e734 193d 03e5 e13d 54ad 163e
00000010: 785f b63c f4cd 133e c2f9 c83c 5e52 a53d
00000020: 6090 823d dc80 f7bd bfbe 2abd 9fbf 09be
00000030: c10c 1f3e 41ca 803d 0673 47bd ca8f 2dbd
00000040: 7042 873d c850 13be d1a9 383d 0761 b13d
00000050: 2463 de3c 02c8 ccbc f30e 063e 2349 993d
00000060: a320 1dbe c017 b53d 8ec7 14be 0bd7 f03d
00000070: 026e 0d3e 91bf 063d 71d5 54bd dc8e d4bd
-0.16478652 0.037403967 0.11030009 0.14714557 0.02226232 0.14434034 0.024533156 0.08072351
0.063751936 -0.12085125 -0.041685816 -0.13452004 0.15532209 0.06288577 -0.04869368 -0.042373456
0.06604469 -0.14386284 0.045083825 0.086610846 0.027146883 -0.024997715 0.1309164 0.07484653
-0.15344481 0.088424206 -0.14529249 0.11759766 0.13811496 0.032897536 -0.051961366 -0.10378811

linOSS_layers.1.B.weight f4 [32, 32]
00000000: 14ce 93b8 d084 d2bd 2886 d93d 498f af3d
00000010: ad7e 0f3c 7a89 093d fa57 863c 509c b43d
00000020: c38a e6bd 1366 61bd 4330 cc39 9402 983a
00000030: 86ac 7dbd de8d e5bd dc22 a1bd 49d6 a03a
00000040: 4dd3 be3d d6e3 7c3d 2929 bc3b 01c6 5bbd
00000050: c14c a7bc 91c0 023a a53c dabd d341 5a39
00000060: 6e59 47ba 3c34 d23d e7c6 50bb a387 ed3d
00000070: 30ac ae39 95fd 88bd 9ba8 e03d 772b c53d
00000080: 9852 aabd 54e5 44bd dc4f 023d e587 5cbd
00000090: 433f 843d 5baa 01bd 52c8 06bc 940e b8bb
000000a0: 2ccd e33d 10c6 3ebc 5b07 8a3a 7aa3 553d
000000b0: 51b3 85bd 7bbb dcb6 0128 a4bd 82da d8bd
000000c0: ff45 07ba 93c8 4239 6d30 c03d 508d e5bd
000000d0: 846b babb d1b9 543b dba3 8a3c 71ac 473d
000000e0: 172d afbd 90a3 d9ba f6fa 383a 9a4f aebd
000000f0: 6bd0 123d 6cd9 e3bd b564 623d 62e6 233c
00000100: 28a3 adbb e17f 223c 6829 be3d db68 973d
00000110: cca1 563d 3d41 46bd 9b12 b93b f687 9c3d
00000120: 6039 b2ba ae44 7c3d add2 5fbd 071b 8c3d
00000130: 63a7 9ab8 11c7 cfbd cc77 3dbb 1d17 cb3d
00000140: 708e 56bc fff5 b33a e6a2 a4bc 1bc8 2cbd
00000150: 1ff2 b3ba 9aaf 563d 9265 94b8 db8c 9a38
00000160: 0508 2eb9 1157 9cbd 5cbe 21bd 286b 80b9
00000170: 4381 adbd 1945 0d3d 9268 99ba 2e6c 0ab6
00000180: 1bfd 1636 f353 bd3d 4435 d53d e1c3 083d
00000190: 2426 0e3d ae98 06bd deff ae3c f604 83bd
000001a0: fb3e cb3c c597 8ebd 36c8 3ab7 1aa9 933d
000001b0: 719b 7d3d 6537 cb3d e402 453c 7bc7 963c
000001c0: 9059 733b ed88 953d cb57 203d ac72 d43b
000001d0: 07a3 55bc 3803 06bd d72b f6ba bcbb 013d
000001e0: 812f 2dbd f79f 893b 3bf3 c73d a114 be3d
000001f0: 959e 97bd 7a05 b13b 2cae 763d 9cb1 d3bd
00000200: 83a5 6c3d dbc9 61bd bc0f 93bd 2929 c1bc
00000210: f4f5 88bc 2690 b4bc e0f4 ba3b 43e1 953c
00000220: 8552 973c 98d6 873d c64c 68bd 7536 e2bd
00000230: 0687 aebd 3aab 30bd ef77 eabc d820 d43c
00000240: d645 93bd d9da 95bd 5265 273d 81ba 6abd
00000250: 0762 9fba 1eb5 a0bd 9f25 8f3c d8fd 623d
00000260: 021f bcbd 4df7 423c 7707 20bd a29b 693d
00000270: e38e d03d c3fc bcbd 5198 863c 76ab 823d
00000280: 19fe d33d 1d33 9e3d 8d90 81ba 7a72 20b9
00000290: 4995 2bba 5aa9 4fbd 6278 843a 36aa 5238
000002a0: 515a 68bd 4e56 4339 0d6c 1d3a c227 58bc
000002b0: e79d 00bc 859a f2bd 8b6f e33d caba 0b3d
000002c0: 7808 933d 32a7 bfbd 079f ecbd 5b2f 9a3d
000002d0: 5bca b23a fe27 a2ba 0c38 113d 6edd 2cb7
000002e0: 4a8d 9cb8 0755 4e3d 8c5c ad3d 9281 9bbb
000002f0: 5c89 c0bd aad1 2fbd 5028 903d 37ad 093a
00000300: 1168 c13d 9192 57bc 3b81 e1bd b621 073c
00000310: c4e2 c3bc a6c9 50bd 9d06 623d 7f22 2b39
00000320: 5a84 06ba 6ace ea3d e7a0 c63d 2fa7 b3bd
00000330: 068b d7bd 45c1 0cbd 818b a5bd 27f0 20bd
00000340: 296f 823d 448a 7ebd 60cd d63d f8f2 093c
00000350: e7e8 30b9 803c b4ba b306 e4b9 eb24 1d3c
00000360: 1a63 b2bd 64c2 3538 102a 7d3d 3dbf f13d
00000370: 39ee 7739 7b11 90bd cd2f ed3c 9e06 d6bd
00000380: d2b7 cd3d b410 5c3d 45be e13c c744 3fba
00000390: a166 943d 6a44 a9bc 67a6 b9bd c6c1 32bd
000003a0: a059 9a3d 2227 10bd 7cd5 acbd ea97 08b8
000003b0: 5a7f 60bd a0e5 1739 41a9 69bd 39ca deb9
000003c0: 363a af3a 950f 15ba 7385 f03c 61e4 6fbd
000003d0: b9a3 44bc 4983 7fbd 662d b93d d37e 69bc
000003e0: e57c 893c 754f 313a 804c efbd 3c89 8ebd
000003f0: 709e 30bb 2023 a2bd 7cef 233d fc83 653d
-7.047891e-05 -0.10279238 0.106212914 0.08572251 0.008758229 0.033578373 0.016399372 0.08818877
-0.112569354 -0.055028986 0.0003894587 0.0011597448 -0.06193211 -0.112087 -0.07867977 0.0012270893
0.09317646 0.06174072 0.0057422114 -0.053655628 -0.020422341 0.0004987801 -0.10656098 0.00020814622
-0.00076045736 0.10263869 -0.0031856836 0.11598136 0.00033316156 -0.06688992 0.10969659 0.09627431
-0.08316535 -0.048070267 0.03181444 -0.053840537 0.06457379 -0.031656604 -0.008226471 -0.005616972
0.11123118 -0.0116439015 0.0010530757 0.052157857 -0.065283425 -6.5783365e-06 -0.08015443 -0.10588552
-0.00051602715 0.00018576001 0.093842365 -0.11208594 -0.0056890864 0.0032459388 0.016923836 0.048748437
-0.08553522 -0.0016604532 0.0007056439 -0.085112765 0.035843294 -0.11125454 0.055271823 0.010003658
-0.0052989908 0.009918184 0.09285241 0.073930465 0.052400395 -0.04840206 0.00564797 0.0764312
-0.0013597421 0.061588936 -0.054644275 0.068410926 -7.3744704e-05 -0.10145391 -0.0028910516 0.09916518
-0.013095483 0.0013729929 -0.020097207 -0.042183023 -0.0013728774 0.05241356 -7.076109e-05 7.3695286e-05
-0.0001659692 -0.07633794 -0.03948818 -0.000244939 -0.0847192 0.034489725 -0.0011704138 -2.0626571e-06
2.2499069e-06 0.09244528 0.1041055 0.03338993 0.034704342 -0.03286045 0.021362241 -0.063974306
0.024810305 -0.069625415 -1.1133079e-05 0.07209988 0.06191582 0.09922675 0.012024615 0.018405667
0.003713224 0.07301507 0.039146226 0.0064833965 -0.013039357 -0.032717913 -0.0018781376 0.031673178
-0.04228163 0.0041999775 0.097631894 0.092812784 -0.07403294 0.005402264 0.060224697 -0.10336611
0.05777503 -0.055124145 -0.071807355 -0.023579197 -0.016718842 -0.022041392 0.005705461 0.01829589
0.018471966 0.066327274 -0.05671384 -0.11045543 -0.085218474 -0.043132044 -0.028621642 0.025894567
-0.071910545 -0.073171325 0.04086811 -0.05730677 -0.0012159952 -0.07847045 0.017473994 0.055417866
-0.09185602 0.011899781 -0.03906962 0.05703319 0.101835035 -0.09227898 0.016430052 0.0638036
0.103512 0.07724593 -0.0009884998 -0.00015301435 -0.00065453775 -0.050698616 0.0010106678 5.0226423e-05
-0.056726757 0.000186288 0.00060051755 -0.013193073 -0.007850147 -0.118458785 0.111052595 0.034113683
0.0717935 -0.09358062 -0.115537696 0.075285636 0.0013640629 -0.0012371538 0.03545384 -1.03035545e-05
-7.464977e-05 0.050374057 0.084649175 -0.0047456706 -0.09401199 -0.04292456 0.07038939 0.0005251946
0.09443677 -0.013157503 -0.11010977 0.008247783 -0.023911841 -0.050973557 0.05518209 0.00016320682
-0.0005131416 0.114651516 0.096986584 -0.08772122 -0.105245635 -0.034364004 -0.08083249 -0.039291527
0.06368858 -0.06214358 0.10488391 0.008419745 -0.00016871431 -0.001375094 -0.0004349254 0.009591321
-0.087103084 4.3334803e-05 0.061807692 0.11804054 0.000236445 -0.07034584 0.028953457 -0.10450481
0.100448266 0.053726867 0.027556548 -0.00072963204 0.072461374 -0.020662505 -0.09064942 -0.043641828
0.07536626 -0.03519357 -0.084391564 -3.2566408e-05 -0.054808952 0.00014486024 -0.05704618 -0.00042493807
0.0013368789 -0.0005686221 0.029360509 -0.05856741 -0.012001925 -0.062381063 0.09041862 -0.014251429
0.016783187 0.0006763854 -0.11684513 -0.06959769 -0.0026949905 -0.07916856 0.040023312 0.056034073

linOSS_layers.1.B.bias f4 [32]
00000000: 0065 92bd 59fc f2bd 6802 a7bd 08d0 62bb
00000010: 9fc9 4e39 4363 913b c3be 9e3a 0291 8cba
00000020: f406 a7bd fac8 e63d fe38 c33d 1215 083d
00000030: a325 8bb8 1078 36bd c1dd 8c39 ddd0 8fbd
00000040: e47f d73d 0196 ccbd 729b bf3d fb5f df3d
00000050: 761b 06bd c010 cebd 3600 5e3c db72 a2bd
00000060: 86bb d8bd 45e1 53bd e580 8d3d f648 64bd
00000070: 74d8 a4bc 7c28 abbc 39d1 8e3d cbf6 953c
-0.071481705 -0.11864538 -0.08154756 -0.003460886 0.000197208 0.0044368817 0.0012111295 -0.0010724368
-0.08155623 0.11268802 0.09532355 0.03322322 -6.635047e-05 -0.044548094 0.000268681 -0.070222594
0.1052244 -0.099895485 0.09355821 0.10906979 -0.032741033 -0.100617886 0.013549855 -0.07932063
-0.10582642 -0.051728506 0.0690935 -0.055733643 -0.020122744 -0.020893328 0.069735 0.018306157

linOSS_layers.2.C.weight f4 [32, 32]
00000000: 6d4c 403d d640 a13a f762 4cbd f2b1 6e3c
00000010: 46ae a83c 5a6b b73d 0fce ddbd cac3 96bd
00000020: 4a30 783d 8b37 3a3b eb83 7d3d 056a 19bb
00000030: 0e07 f33d 5fd5 993c 957c 95bc c376 05bd
00000040: 9028 523b 7e0e a6b8 a874 06bd cab4 27bd
00000050: 3e3a 3c3c 9b31 0c3d 7239 e33d 2edb bebc
00000060: 4dc4 4bbd 23bf 66bd a460 83bd 03bc ef3d
00000070: 5242 09bd a3cf fabc 38b8 963d c115 ac3d
00000080: a81c d6bd c5d8 4cb9 b74a e83b 75cd 9aba
00000090: c02f 3dbd 77ca afbd 468e 92bd db38 343c
000000a0: 99b4 f4bc 8407 d4bd e10e ef3d 727e eb3c
000000b0: 5d60 e0bb 6dae a9ba 38a3 63bc e751 7abd
000000c0: 362f d9bd 174f 753d 0c06 d9bd c9db 9dbd
000000d0: 5ac6 b93d 3952 66bd f8bb 39bc e61b ae36
000000e0: 67a1 efbd cd90 d3bd d2a3 b1bd cf9c 943a
000000f0: cc05 72bc bbd7 993d 3d77 6f3d 3c77 ea3d
00000100: 9c94 c4bd d23f 01bd b8ad 843d 3ccd 503c
00000110: d5fe 74bd d64a 9c3d ff3a 17bd 2f37 e23d
00000120: 8719 adbd 4728 1c3d 4939 4239 b5ad c4bd
00000130: de91 1b3d 3f5b 7dbc 2768 35b8 9642 fabb
00000140: 6734 6ab9 df8d 2abb 7ee8 df3c 802b ecb9
00000150: d05f 853d fb3e a93c 236c 69b7 9aa9 a53c
00000160: a314 3bbc 6085 a3bd 5af7 79bd 58e7 85bd
00000170: 9247 b0bd 006f aaba cae8 0bba 5d7b d0bd
00000180: 7185 1c3d 0c7c 5f3d 8709 bf3d 7b2e eeb8
00000190: 7ce2 8eb9 ab4a 4a3d ae40 c5bd 5a88 92b8
000001a0: 6d05 773d 7d65 883d 52d1 6bb8 d21f feb9
000001b0: 04ec 673c 0bb9 beb9 015e 8bb8 d8fe aa3d
000001c0: 0b7e c03d 11e5 3cbd 2bc0 d03d 393c 48bb
000001d0: ce2a 79b9 d379 cd3d 1d81 fdbc b535 f63c
000001e0: 7d10 3d3a 956d 3bbd d515 c738 8de8 c03d
000001f0: 8b3c 363d 3d62 1bbd 7996 d23d 627c 46ba
00000200: a675 c03d c6ca e23d 9d57 c6bb ec2d ad3d
00000210: 6cc0 8c3a 156d a6ba 649e b038 fc70 2db8
00000220: 6e37 cab9 d19a d6bd fec2 093a 1bf5 d63d
00000230: f6bf 293c 7636 d9bd af93 a1ba f789 ad3a
00000240: 3661 d33b b839 d7bd dbe8 b2ba e42c 90bd
00000250: 4bad 6eba af7b 533d 6427 8b3d 2568 b13a
00000260: f6a7 cc3d 8925 1839 31dc 41bd a505 f73c
00000270: 3c42 2eb9 29ea a9bd c066 6a3d ba38 e73d
00000280: 8a50 2f3d 0214 a93a eb5b bbbd 9192 c13d
00000290: 4277 25bd b343 94ba 0d76 d2bd 5398 5d3d
000002a0: cf12 60ba c313 e33d 93db 063d 9928 e4bd
000002b0: b957 aa3d d693 b0bd fb2d 02bd f7d9 1a3d
000002c0: e21f 2dbd 3c1f 4f3b e672 ca39 b7b6 5439
000002d0: 7665 2cbd 3413 8b3d c3da 79ba ed74 833c
000002e0: f24a f7b6 f1a9 0ebd c2a7 88bc 99b7 7e3d
000002f0: b37d c7bd 9b8f 4ebc 2d2e d6bd 86c5 50bd
00000300: 878d 2bba 34fe fdb9 0d85 343c 6787 a03d
00000310: 46b7 f5b9 ed48 e23d 7209 8436 7f95 e73d
00000320: a596 acba 5553 c5b8 3b38 9e3b febb a9bd
00000330: 3325 b33d 610a d63d 428d c9bd 0cfa 4ebd
00000340: 0963 aa3d cd17 113b 9327 71bc 2d29 0fbd
00000350: 4dea 14ba afaa 9d3a 4bae d83d 9a9e 57bd
00000360: 877c 61ba 1591 ab3b 37bc 0dbd b918 6738
00000370: 4429 ad3a b8e1 a03d 1174 903d e295 7839
00000380: fd57 18bd fee6 40bd f068 c3bc 385b c53d
00000390: 6540 b23d e728 71ba 69ef dbbd b35a 183c
000003a0: e588 a33a dcf0 363d fd16 1d3d e757 bb3d
000003b0: 92f8 8839 98ff bc39 f650 9e37 f7fc 873d
000003c0: d624 9e3d 5fc7 fb3c d160 673a 8374 c3bb
000003d0: d128 da3d 717b 1bbd eb33 b4ba 629e 0e3c
000003e0: d4d5 1b3d 1c9d 56bd 9bed 8e3a 86c2 eeb8
000003f0: 37f4 0bba 451c c2bd 786c ca3c 5b70 a1bd
0.046947885 0.0012302648 -0.049899068 0.014568793 0.020590913 0.089560226 -0.10830318 -0.073615626
0.060592927 0.0028414454 0.061893385 -0.002340914 0.1186658 0.018778501 -0.018247882 -0.032583963
0.0032067634 -7.918196e-05 -0.032826096 -0.0409439 0.011488495 0.034226995 0.11094941 -0.023297872
-0.049747754 -0.056334626 -0.06414917 0.11705782 -0.033510514 -0.030616587 0.07359356 0.08402587
-0.104546845 -0.00019535709 0.007088985 -0.0011810499 -0.046188116 -0.08583539 -0.07156043 0.0109998835
-0.029871272 -0.10352996 0.1167276 0.028746817 -0.006847425 -0.001294566 -0.013893895 -0.061113264
-0.10604708 0.05988988 -0.105968565 -0.07707936 0.09071036 -0.056230757 -0.011336319 5.188852e-06
-0.11700707 -0.10330353 -0.08673824 0.0011338237 -0.01477189 0.075118504 0.058463324 0.114485234
-0.095986575 -0.031555004 0.06478447 0.012744244 -0.05981334 0.07631461 -0.036921497 0.11045682
-0.084521346 0.03812435 0.00018522622 -0.096034445 0.037980907 -0.015463649 -4.3250762e-05 -0.007637332
-0.000223355 -0.0026024503 0.02733254 -0.00045045838 0.065124154 0.020659914 -1.391306e-05 0.020222474
-0.011418494 -0.07984424 -0.06102691 -0.06538266 -0.08607401 -0.0013003051 -0.00053371175 -0.1017978
0.038213197 0.05456166 0.09327989 -0.00011357382 -0.00027253095 0.049387615 -0.09631477 -6.98722e-05
0.06030791 0.06659982 -5.622331e-05 -0.00048470363 0.014155392 -0.00036377492 -6.645546e-05 0.08349389
0.09399041 -0.046116892 0.10192903 -0.0030553474 -0.00023762436 0.10033002 -0.030945355 0.030054906
0.0007212235 -0.045758802 9.493126e-05 0.094193555 0.044491332 -0.037935484 0.10282607 -0.0007571635
0.0939744 0.11073832 -0.006052925 0.084560245 0.0010738499 -0.0012697304 8.4218365e-05 -4.135164e-05
-0.0003856974 -0.10478748 0.00052551914 0.10495969 0.010360708 -0.10606091 -0.0012327338 0.0013239969
0.0064507974 -0.10509056 -0.0013649719 -0.07039812 -0.0009104802 0.051631626 0.067946225 0.0013535066
0.099929735 0.00014509833 -0.04732913 0.030154059 -0.00016618607 -0.08296616 0.057226896 0.112901166
0.042801417 0.001289964 -0.09148391 0.094517834 -0.040396936 -0.001131168 -0.10276423 0.054100346
-0.00085477246 0.110877536 0.032924246 -0.11140556 0.08317513 -0.086219475 -0.03178213 0.037805524
-0.042266734 0.003160431 0.00038614048 0.00020285962 -0.04208895 0.06790772 -0.0009531194 0.016046965
-7.3698984e-06 -0.034830038 -0.016681556 0.06218681 -0.09740772 -0.01260748 -0.10458026 -0.050969623
-0.00065442215 -0.00048445316 0.01101805 0.07838326 -0.0004686659 0.11049066 3.935006e-06 0.11307811
-0.0013167454 -9.409214e-05 0.0048284805 -0.0828781 0.087473296 0.10451198 -0.09841396 -0.050531432
0.08319671 0.002213943 -0.014718908 -0.034951378 -0.00056806655 0.0012029017 0.10580119 -0.05264149
-0.0008601625 0.005235801 -0.034603324 5.5097717e-05 0.0013211151 0.078555524 0.07053388 0.00023706959
-0.037193287 -0.04709529 -0.023853749 0.09636539 0.087036885 -0.00091995153 -0.10739023 0.009298968
0.0012476711 0.044663295 0.038352 0.091476254 0.0002612514 0.00036048586 1.8872768e-05 0.06640046
0.0772187 0.030734716 0.00088263775 -0.005964817 0.10652316 -0.03795952 -0.0013748383 0.008704754
0.03804572 -0.052395925 0.0010904552 -0.00011384957 -0.000533882 -0.09478048 0.024709925 -0.07882758

linOSS_layers.2.C.bias f4 [32]
00000000: ff67 0abe a373 033d 07ce 073e f260 853d
00000010: 1ded fdbc abec 2d3e 5130 1e3e 1c9c a1bd
00000020: 074f fa3d fa89 10bd f6af 8f3d f95b 3c3c
00000030: 80b5 cb3d 6fb7 e2bd c05b 5fbd f9e9 e6bd
00000040: 7671 bcbd eb97 6fbd 7d5d 6c3d fbb2 403d
00000050: db69 af3c f28c f93d e1ba 163e 881e 2d3e
00000060: 90a7 ef3d e391 8bbc ff68 153d ba15 9ebd
00000070: 8d85 f5bb 871e af3c c460 08be e5e7 033e
-0.13516234 0.0320927 0.13262187 0.065126315 -0.030996853 0.16984813 0.15448119 -0.078911036
0.122221045 -0.035287835 0.07015984 0.011496537 0.09946728 -0.110701434 -0.05453086 -0.112750955
-0.092013285 -0.05849449 0.057706345 0.04704569 0.02141278 0.12185086 0.14719726 0.16906178
0.11701882 -0.017037338 0.036477085 -0.07718988 -0.007492727 0.021376861 -0.13318163 0.1288143
