models/fno_model.pth (torch, 738300 bytes, 32 tensors)

linOSS_layers.0.glu.w1.weight f4 [128, 128]
000000 73 89 fe bc 39 b9 4e bc 77 05 f2 39 6a 7c 5d 3c
       -0.0310714 -0.012617403 0.00046161909 0.013518432
000010 ea 38 7f 3d ac a1 2a bd 12 42 f4 3c 8b 14 cc 3c
       0.062310137 -0.04165809 0.029816661 0.02491214
000020 a8 e2 3e bd 4a 91 08 bd ec 23 3c 3d a8 7f 0d bd
       -0.046602875 -0.033341683 0.045932695 -0.03454557
000030 0d ae 8f 3d 4d c9 ae 3d 8f 8b d0 3d e0 52 82 3d
       0.070156194 0.08534489 0.10182869 0.063634634
000040 83 de 83 bc 38 28 26 bd f2 ce 4f bd da ef a7 3d
       -0.016097313 -0.0405657 -0.050734468 0.08200045
000050 06 8a 4e bd cb 9c 6e bd f8 a6 c7 bc c7 f7 c8 bd
       -0.0504246 -0.058255 -0.02437161 -0.09812885
000060 8a 7c 64 bb 3d 23 9e bc 2d 05 60 3d 4d f6 f2 3c
       -0.003486427 -0.019303912 0.054692436 0.029658461
000070 e1 45 a0 3d a8 b2 a6 3d db 9e 72 3a 80 7e 09 3d
       0.07825828 0.08139545 0.00092552387 0.033567905
000080 e4 34 67 bb 1b 93 90 bc ce e4 78 bc e2 73 1b bd
       -0.0035279328 -0.01764827 -0.01519127 -0.03795231
000090 2e 26 79 bd 7b e3 ce bb 6f 1e ce 3c f6 e0 89 bd
       -0.060827427 -0.006313739 0.025160996 -0.06732361
0000a0 2a 12 5d 3d 06 3b bb 3c d2 41 e3 bc 26 b6 d0 3c
       0.0539724 0.022855293 -0.027741347 0.02547748
0000b0 25 08 50 bd 35 a1 6b 3d 46 be 8a bc 62 54 25 bd
       -0.050789017 0.057526786 -0.016936433 -0.040363677
0000c0 95 11 d2 3c 8f 8d 59 ba 10 b5 96 bc a8 c5 f0 3c
       0.02564315 -0.0008298987 -0.018396884 0.029391125
0000d0 aa d3 3f bd d4 d8 35 3c 12 97 96 3c 13 f1 af bc
       -0.046832718 0.011099059 0.018382583 -0.021477258
0000e0 ef 9d 3e 3d 3e 62 07 3d 7a 3f 1b 3c fd e1 29 3d
       0.046537336 0.033052675 0.009475583 0.041475285
0000f0 63 b2 23 3d 48 13 e9 bd 76 ae 06 bd cb 73 68 3d
       0.039965045 -0.11380631 -0.032881223 0.056751054
000100 5b dd 2a 3d 93 f2 95 bd 2a cd 14 bd 7d f7 8d bd
       0.041715007 -0.07321658 -0.036328472 -0.0693197
000110 3e 3c 90 bd bd 7f 2e bd 7f 25 59 3d bc aa 93 bc
       -0.0704274 -0.04260229 0.053014275 -0.018025748
000120 c4 8c 1c bd 5c da a3 bc 09 3a 61 3d 02 8f b5 bd
       -0.038220182 -0.020001583 0.054986987 -0.08865167
000130 5c bf 38 bd 25 3b fc bc d9 3b 36 3d ba a3 64 bc
       -0.04510437 -0.030789921 0.04449067 -0.013955051
000140 ab 21 2b 3d 25 c2 82 3c af 6b 4e 3d e0 5f 18 3d
       0.041780155 0.015961716 0.050395664 0.03720081
000150 c2 88 0c 3d 73 5f 46 3d 83 ae 7f bc 96 bb 4a bc
       0.03431011 0.04843087 -0.015605572 -0.012373826
000160 24 bf df 3c 09 ca 54 bd 91 4c bc bd d8 4a 2d 3d
       0.027312823 -0.05195049 -0.091942914 0.042307705
000170 0d 86 a2 bc e6 dd 06 bd 36 0d a4 3a f0 0f 2a 3c
       -0.019839311 -0.032926463 0.0012516144 0.010379776
000180 49 ee 00 3d 36 e8 bb bd f7 08 db bb d7 a2 9e bd
       0.031477246 -0.0917515 -0.0066844183 -0.07745903
000190 8f 0f f8 bb d1 50 a2 3c d6 f6 8f bc b8 46 09 3d
       -0.007570214 0.019813927 -0.017573755 0.03351471
0001a0 aa cc ec 3c f8 36 31 bd 4a b9 8c 3c 64 c3 74 3c
       0.028906185 -0.043265313 0.017178196 0.014939163
0001b0 2f 33 43 3c c0 19 52 3c 8a 2c d1 bc a0 21 49 bd
       0.011914059 0.012823522 -0.025533933 -0.049104333
0001c0 c4 d7 11 bc cc e7 74 3d d6 09 93 3c 9d 17 1d 3c
       -0.00890154 0.05979137 0.017949026 0.009588149
0001d0 43 3f 18 3d 9a 8b 21 3d b7 e5 f2 bc 3b e6 af 3c
       0.037169706 0.039439775 -0.029650552 0.021472087
0001e0 ad 12 ce bd d1 e9 f8 3b b2 3e 05 bd 62 98 bb bd
       -0.10062156 0.0075962325 -0.032530494 -0.09159924
0001f0 ea 39 96 3c 76 f4 38 3d a1 f7 dc bc 83 5a 14 3d
       0.018338162 0.04515501 -0.026973547 0.03621913
000200 07 c8 55 bc bb 90 39 bd 1e 95 4a 3d 85 3c 58 3c
       -0.0130481785 -0.04530404 0.049458615 0.013198023
000210 76 54 1a bd a1 f2 00 bd ee ca 7f 3d 2f 1f ac 3c
       -0.037678204 -0.03148139 0.06244939 0.021010963
000220 74 a3 a4 3d 01 0c 07 3d 9c 0f d5 bb 5a 5d d0 3b
       0.08038989 0.032970432 -0.006502105 0.0063587846
000230 03 c8 e0 bc f6 a8 98 3d 45 06 8d bc 34 14 98 bd
       -0.027439123 0.07454102 -0.017214904 -0.074257284
000240 6e db 1f bc 9e f5 72 bd 90 3e 0a 3d 97 4a 1d bd
       -0.009756906 -0.05931627 0.03375107 -0.038401213
000250 32 cd 82 bd 04 2f 8b 3d fc d1 b2 bc 69 b3 ad 3b
       -0.06386794 0.06796077 -0.021828644 0.0053009284
000260 59 59 2f 3c 0b f0 66 bd d5 a0 e4 bc b9 c6 52 bd
       0.0107024545 -0.056381267 -0.027908722 -0.051459048
000270 de 0b e8 3d 1f 4d 46 bc 5a f8 c7 3c 1a cc 81 3c
       0.113303885 -0.012103348 0.024410415 0.015844394
000280 62 a2 94 3d 5f c9 9a bb 22 88 de 3c df a1 78 bd
       0.072575346 -0.0047237123 0.027164523 -0.060701247
000290 d5 e7 1c 3d 12 ec d8 3a a3 17 79 3c 4c 42 c0 3c
       0.03830703 0.0016549847 0.015203389 0.023469113
0002a0 24 66 44 bd 42 70 22 ba ba d1 4f bc f3 b4 d8 3c
       -0.04794897 -0.0006196537 -0.01268428 0.02645347
0002b0 66 c4 c0 bc 48 e8 16 bd 30 1b 4f 3d 82 99 9f bc
       -0.02353115 -0.036842614 0.050563037 -0.019482378
0002c0 f0 0b 93 3c 35 f9 3a 3d 9f a6 87 bd df af d0 bb
       0.017950028 0.04564782 -0.06623577 -0.0063686217
0002d0 3e cc ea 3c bb 2d ad 3c b3 6f 07 3c 3d 15 80 bd
       0.028661843 0.02113997 0.008266377 -0.06254051
0002e0 82 80 8c bc 27 91 9d 3b f5 aa 2c bc a3 52 9f bc
       -0.017151121 0.0048085633 -0.010538806 -0.019448584
0002f0 aa 4e b4 bc 93 86 9f bc 9d dc 59 3c d8 d2 96 3d
       -0.022010166 -0.01947335 0.013297227 0.07364434
000300 28 7c 5e 3c 49 47 3a 3c e5 2d 7f 3c e6 b0 97 bc
       0.013579406 0.011369535 0.015574907 -0.018516969
000310 3d 3e ca 3c 2e 58 99 3d a2 38 4c 3d 3c a6 0b 3d
       0.02468788 0.07487522 0.049858697 0.03409408
000320 5f 6a ba 3c c4 e1 79 bc 20 43 0c bd b1 a2 78 3c
       0.0227558 -0.015251581 -0.034243703 0.015175507
000330 20 06 8a bd 37 ad 44 3d b3 78 21 3d d4 0c 85 bd
       -0.067394495 0.048016753 0.03942175 -0.064965874
000340 b6 51 19 3d 2f 5d a8 3c 28 fd 7c 3d 0c e6 fa 3c
       0.03743144 0.020552246 0.061764866 0.030627273
000350 e9 63 05 bc 0f 07 d7 bc 25 9f 1f bd d1 58 07 3d
       -0.008141496 -0.026248483 -0.03897013 0.033043686
000360 d3 45 ba 3c 7e 97 a7 bc 56 3d 48 3d 40 2f c9 3c
       0.022738373 -0.02045798 0.04888662 0.024558663
000370 9e d4 b2 3d 00 4f 2a bc 04 0b 40 bb 6b bd ca bc
       0.0873196 -0.010394812 -0.002930344 -0.024748525
000380 4e 74 f9 3c 44 f7 17 bd b3 a0 b4 bb 04 2a 57 3c
       0.030450966 -0.037101045 -0.005512321 0.013132576
000390 ff b7 6e bc 4f bc 1d bd 4e 32 b6 3d 09 10 0d bd
       -0.014570235 -0.038509663 0.088963136 -0.03443912
0003a0 0e 01 64 3b 6d f8 d4 bd c0 50 c2 bd 00 10 66 bc
       0.0034790668 -0.10398946 -0.09488058 -0.014041901
0003b0 5a 58 6a 3d aa 01 0d 3d b6 48 35 3d c5 78 2a 3d
       0.057213165 0.034425415 0.044258796 0.04161908
0003c0 a3 b1 53 bd 6b 3f 6a bd c9 f2 31 bc ae f7 8e bd
       -0.05168308 -0.057189386 -0.010861107 -0.06980835
0003d0 79 69 63 3d 86 da 2f bd 5b a3 27 bd 46 fd ad bd
       0.05552051 -0.04293301 -0.040927272 -0.08495574
0003e0 00 53 22 3d 4c f4 11 3d 2c 98 9a bc 31 0c 0c 3d
       0.039629936 0.03563337 -0.01887139 0.034191314
0003f0 de 9f c8 3c f6 d6 91 3d b9 c7 ab ba 55 06 56 bc
       0.024490293 0.07121079 -0.0013105787 -0.013063033

linOSS_layers.0.glu.w1.bias f4 [128]
000000 d0 16 be bc 6e 24 1f bd 33 48 93 bd 1c e5 66 3d
       -0.023204237 -0.0388531 -0.07191505 0.05637084
000010 8b 7e 4f 3d 70 d8 f7 bc e9 aa 20 3d 0e d7 51 3d
       0.05065779 -0.030254573 0.039225493 0.051230483
000020 4b ae 93 bd cd 83 3a 3b 9b af d3 bc 1c b1 3a bd
       -0.07210978 0.0028459907 -0.025840571 -0.04557906
000030 40 d1 5b bc 6a 63 b1 3c 62 42 5c 3d a4 95 04 bd
       -0.013416588 0.02165385 0.053774245 -0.03236927
000040 3c 93 08 3d 4f e2 e2 3c fa 3e a9 bc 65 be d1 bc
       0.03334354 0.027695803 -0.020659912 -0.025603482
000050 69 4b 42 3d 3b 97 da 3c 82 df 7b 3d d5 84 ca 3c
       0.047435198 0.02668344 0.06149245 0.024721542
000060 32 0a eb bb 04 d7 fc 3c 98 ea cc bc 74 59 fc 3c
       -0.0071728462 0.030864246 -0.025014207 0.030804373
000070 b7 dc 19 3d 3d 41 16 bd cc 35 cc 3c 29 b3 e6 bc
       0.037564006 -0.03668331 0.024927996 -0.028161602
000080 28 62 e7 bc 07 a7 0c 3c 10 75 af bc 17 71 af bc
       -0.028245047 0.008584744 -0.021418124 -0.02141623
000090 3c 9a 00 bc 7a 3c 39 3c 7a c5 61 3d d4 2f fe bc
       -0.007849272 0.011305923 0.05511997 -0.031028666
0000a0 e8 f0 31 3d 55 b7 42 3d 4a e1 a4 bb 8c 2f 2e 3b
       0.043442637 0.04753812 -0.0050317394 0.0026578633
0000b0 74 44 23 bd 49 42 b3 bc a0 37 3d 3c 05 3d 89 3b
       -0.039860204 -0.021882193 0.011548907 0.0041881823
0000c0 7c 6c 57 bc 2a cc fd bc f6 60 70 3c 94 be c9 3c
       -0.013148423 -0.030981142 0.014671555 0.024627008
0000d0 5c 66 17 bd f8 f3 c2 3c 71 41 f3 bc 6c 9d f0 3c
       -0.036962852 0.023797974 -0.02969429 0.02937194
0000e0 00 02 b8 34 04 9e 07 bd 90 5e 61 3d 59 5e 49 bd
       3.4274126e-07 -0.03310968 0.055021822 -0.049162243
0000f0 92 a7 bb 3b e1 4e 7e ba ad 6e 30 bd 7b 85 85 bd
       0.005726763 -0.0009701085 -0.0430743 -0.065196
000100 9d de 31 bd 6b ee b8 bc 0c 16 ac 3c 3d 41 3a bc
       -0.04342519 -0.022574624 0.021006607 -0.011368093
000110 ff fc 02 bd b1 e2 d4 bc 2a d0 4c 3b e6 c1 53 3c
       -0.031979557 -0.025987001 0.0031252005 0.012924647
000120 50 dc 32 3c 7c 25 2a bd 26 92 4d bc 3c 7f 83 bc
       0.010916784 -0.041539654 -0.0125470515 -0.016051881
000130 4a 9f 57 3b 7f 7e ed bb 8c 5e c9 3c be a2 b8 bc
       0.003290134 -0.0072477455 0.024581216 -0.022538539
000140 47 f0 68 3c 4f f7 9b bc c6 5a 49 bd fa 6a a6 bb
       0.014217443 -0.019038824 -0.049158834 -0.0050786706
000150 bf e9 9a 3c 1e 31 fe bc 88 a5 74 bd 25 12 f5 3c
       0.018910287 -0.03102928 -0.059728175 0.029915879
000160 3a 8c 5c 3d 21 3d 6a 3c a2 08 29 3c 29 2b 34 3d
       0.053844668 0.014296801 0.010317 0.043986473
000170 8f e9 29 3d cf d7 84 3b ee cd c1 bc 27 1a 01 bd
       0.041482504 0.0040540467 -0.023657765 -0.03151908
000180 37 3b c6 3c 9e 59 8a bb 45 a5 ff 3c c6 e5 0b 3d
       0.024198158 -0.004222109 0.031206736 0.034154676
000190 e8 93 61 3d 56 00 12 bd dc 91 cf bc 7c 4f 22 3d
       0.055072695 -0.03564485 -0.025338106 0.039626583
0001a0 1d 05 24 3c ea 8f 51 3d 14 ad 56 3d 9e bf 8b bd
       0.010010985 0.051162638 0.052411154 -0.068236575
0001b0 cc c0 e0 3c 8f 6c f7 3c a5 2c ae 3b 25 4d f3 3c
       0.027435683 0.030203132 0.0053153806 0.029699871
0001c0 17 b2 02 bd 0d f1 24 3d ce 44 2f 3d 22 d9 74 3c
       -0.03190812 0.040268946 0.042790227 0.014944347
0001d0 94 ba 4b 3d b1 da 80 bc c4 32 6b bc a1 7f dd bc
       0.04973848 -0.01572928 -0.014355365 -0.027038397
0001e0 f7 30 3a 3d 23 a6 83 bc 17 62 e4 3b 80 ef 21 bc
       0.045456853 -0.016070431 0.006969701 -0.009883761
0001f0 75 c5 a7 3c 74 37 5f bc 11 51 1a bc f6 9b e3 ba
       0.020479897 -0.013624061 -0.009418742 -0.0017365206

linOSS_layers.0.glu.w2.weight f4 [128, 128]
000000 d3 3e 1c bd 15 e3 08 bd fd f2 47 bd f2 ac ba bd
       -0.03814585 -0.033419687 -0.048815716 -0.09115018
000010 c5 a4 e5 bc 67 8d 86 bd 6e 45 b6 bc 47 57 3f bd
       -0.02803267 -0.06569939 -0.022249904 -0.046714094
000020 83 96 40 bd ae 17 08 be 44 3c 48 bd 1c e3 66 3c
       -0.04701854 -0.13290283 -0.0488856 0.014092233
000030 fd 6d 52 3b dc 42 5c 3c 1e 03 ac bd 85 81 cd bc
       0.0032109015 0.013443675 -0.08399032 -0.025086174
000040 5c 51 17 3b b2 1b 73 3c b2 f3 dc b9 ac 19 2b bd
       0.0023089265 0.014838146 -0.00042143237 -0.04177253
000050 c2 07 b7 3c ac 27 31 3c 08 5a c9 bc ad 56 8a bc
       0.022342566 0.010812681 -0.024579063 -0.016887033
000060 da e9 7d bc 45 ab d7 3b b5 9c a6 bb ac b7 d9 3c
       -0.015497649 0.006581696 -0.005084599 0.02657684
000070 dd 8a 18 3d 2b 43 a7 bd e4 5e 21 3d 8d 71 06 be
       0.037241805 -0.08167108 0.039397135 -0.13129254
000080 b8 d4 ca bd 2d 83 55 bd 19 01 ed bd c6 f1 f9 3b
       -0.09903854 -0.052127052 -0.11572475 0.0076276986
000090 da 7e 2a bd d6 bb 89 3c a4 6d c1 3c 1b 84 38 3d
       -0.04162488 0.0168132 0.023611851 0.04504786
0000a0 09 99 12 bd 1b eb 13 bd aa cf 12 bd cf a7 fe bc
       -0.035790477 -0.036112886 -0.035842575 -0.031085877
0000b0 fd ba d6 bd f2 c3 b2 3b f4 b8 bf bc fd 64 8b 3b
       -0.10484884 0.0054554874 -0.023403622 0.004253982
0000c0 de 44 be 3d ef c5 3c bd e3 17 72 bc 76 0f b4 3d
       0.09290479 -0.0460872 -0.014776203 0.087920114
0000d0 bc 1f 03 3e e4 80 94 bb 82 a7 a1 bd 9e b0 45 bd
       0.12805074 -0.0045319665 -0.07893278 -0.04826414
0000e0 b6 4d 03 be 2d ac 86 bd 6d 60 a9 bd a4 e4 f3 bc
       -0.12822613 -0.06575809 -0.08270345 -0.02977211
0000f0 67 ae 73 bd b5 5a 61 3d 63 ff 81 bb d4 fb b5 bd
       -0.059492495 0.055018146 -0.003967212 -0.08885923
000100 c4 4c 9a bd 61 7f 9a 3c 4e 5c a6 bc f7 76 0f bd
       -0.07534173 0.018859567 -0.020307686 -0.035025563
000110 69 72 2f 3d cd 02 2a bd 70 20 bc bd ca 50 a1 bd
       0.04283372 -0.041506577 -0.091858745 -0.078767374
000120 87 c2 47 3b a7 6a d7 bd 13 ad dd bc 38 c5 ff bc
       0.0030480938 -0.10518389 -0.027060067 -0.03122197
000130 a0 21 95 3c a0 6c 2b 3d b5 d6 7e bd 18 8e 31 bd
       0.01820451 0.04185164 -0.06221648 -0.0433484
000140 b8 8f dc bc cd e8 5c bc 39 f4 1e bd 7b 5c dd 3c
       -0.026924 -0.013483238 -0.038807128 0.027021637
000150 7c f9 30 bd 92 4c cc 3c bb 41 20 3d 8d 33 a3 bb
       -0.043206677 0.024938855 0.039125185 -0.0049805106
000160 1b 64 f6 bc 4b 7e 57 bd 9b 80 38 bd 37 b0 90 bd
       -0.03007703 -0.052610677 -0.045044523 -0.0706486
000170 e2 7e 3a bd 76 7d 09 be 2f ec c4 bd fb 3b ca ba
       -0.04553116 -0.13426766 -0.09615361 -0.0015429253
000180 49 d2 42 bd 59 35 b7 bd d6 fc 8a bd 20 10 e5 bc
       -0.047563825 -0.08945722 -0.06786506 -0.02796179
000190 e3 95 03 bd d1 d4 f7 bd 3e 29 f2 39 90 2c 38 bc
       -0.032125365 -0.121011384 0.00046188565 -0.011241093
0001a0 cb b5 63 3d 59 2f db bc a8 4f 43 3c 36 3c 8e 3c
       0.055593293 -0.026755976 0.011920847 0.017362695
0001b0 ec 2a c6 bc c6 a2 27 bd d5 e0 29 3d 2d 6f c0 3c
       -0.024190389 -0.040926717 0.041474182 0.023490513
0001c0 0e f4 d1 3c 41 83 34 bd c4 7a 59 bd 59 2d 34 bd
       0.02562907 -0.044070486 -0.053095594 -0.04398856
0001d0 43 fc 92 bc c0 8f c9 bc 7b a7 0f bd eb 84 ad 3b
       -0.017942553 -0.024604678 -0.03507183 0.005295386
0001e0 6a c5 9e bd 1c 3c 9e bc c6 93 ea bc 1c 1e 19 bc
       -0.077524975 -0.019315772 -0.028634917 -0.009345558
0001f0 7b 98 f3 bd 70 60 f5 bc 50 a0 88 bd 58 bc 37 3d
       -0.11894318 -0.029953212 -0.06671202 0.044857353
000200 ef 83 7b bd 66 90 5f bd 4c 4d c0 bd 7d 7a e4 bd
       -0.06140512 -0.05458107 -0.09389743 -0.11156175
000210 46 7e 6c bd ce a4 fa bc 83 6f 9d 3c 34 7c b8 bc
       -0.05773761 -0.030596163 0.019218212 -0.022520162
000220 26 54 12 bc 83 4f e0 bd c0 6c 80 bd 52 1d 43 bd
       -0.008931195 -0.10952666 -0.062707424 -0.047635384
000230 31 d3 fd bd b0 17 3f 3e 4f 28 12 3c bc 8c 7b bc
       -0.12393797 0.1866138 0.008920743 -0.015353378
000240 f8 6a 95 bd bf 67 ae bd ee eb 17 bd ef 48 02 be
       -0.07295793 -0.08515882 -0.037090234 -0.12723134
000250 6b f6 90 bd b2 fd 87 3c 9f b0 b9 3b ee 88 f5 3c
       -0.070782505 0.016600464 0.005666807 0.02997252
000260 3b 6d 87 3d eb f2 b9 3d 26 d6 81 3c e1 6e ed 3c
       0.06612631 0.09079536 0.015849184 0.028983535
000270 ae e5 a7 3d 5f 43 0b be 5a 79 7c bd cd fc 0c be
       0.08198105 -0.13599919 -0.061639167 -0.13768311
000280 49 e5 df bd 60 9d dc bd bd 62 ce bd de 61 c0 bc
       -0.109324045 -0.107722044 -0.100774266 -0.023484167
000290 f5 1d b5 bd 4e fe 93 3d c7 86 90 bd 3e 7d ac bd
       -0.088436045 0.07226239 -0.07056957 -0.084223256
0002a0 b9 95 94 bd 54 7d 99 bc 59 74 13 be f4 c2 f9 bd
       -0.0725512 -0.018736519 -0.14399852 -0.121953875
0002b0 52 ce 76 bb f8 25 ab 3c 19 37 46 bd ad 36 bb 3d
       -0.0037659598 0.020892128 -0.04839239 0.09141288
0002c0 ec b0 8a 3d 98 4f ca bc 08 11 30 3b d1 de a9 3d
       0.067720264 -0.024696156 0.002686562 0.08294452
0002d0 f1 18 05 3d d6 24 34 3d d7 2a 6e bd 34 33 99 bd
       0.03249449 0.043980442 -0.058146324 -0.07480469
0002e0 6f 7f 51 be eb fb dd bd 9c 02 b9 bd 57 94 a1 bc
       -0.20458768 -0.10839065 -0.09033701 -0.019724054
0002f0 11 5a 0c bc f3 15 10 bd f4 e4 62 bc cb 6b a9 bd
       -0.008566395 -0.035177182 -0.013848532 -0.08272513
000300 26 b1 d0 bd f3 8a 6c bd 40 d1 ac bb b8 f3 1e bd
       -0.101900384 -0.0577497 -0.005273968 -0.038806647
000310 14 0c 16 3d 80 b8 37 bd 33 1f cf bd 36 17 eb bc
       0.036632612 -0.044853687 -0.10113373 -0.028697591
000320 08 f6 e1 bd 5d c3 45 bd 27 3d 45 bc 5b b2 db bc
       -0.11033255 -0.048282016 -0.012038506 -0.026818445
000330 67 4d 93 3d 82 36 4b 3d bb 36 5a bc 87 f9 01 bc
       0.07192498 0.04961253 -0.013318713 -0.007933027
000340 00 76 bf 3d e1 cf 98 bd 9f f7 0e bd 7c 21 f3 bc
       0.093486786 -0.07461525 -0.03490412 -0.029679053
000350 70 df 19 3d 68 b3 09 3d ca 08 64 3b 08 a9 4b bc
       0.037566602 0.03361836 0.0034795278 -0.012430437
000360 ba 8f 8c bc 4c 91 de bd bc 7e c9 bc 66 56 44 be
       -0.017158378 -0.10867557 -0.024596564 -0.19173583
000370 f9 a0 97 bd 29 33 1b be 87 3a 3b bd a7 b5 81 bc
       -0.0740375 -0.15156235 -0.045710113 -0.015833689
000380 65 21 86 bc f3 01 96 bd 0c e7 4c bc bc fa dc 3d
       -0.016373346 -0.073245905 -0.012506258 0.10790011
000390 3b 21 5f 3b 9c f0 aa bd 66 e7 01 bb 11 e5 bc bd
       0.0034046907 -0.08346674 -0.0019821762 -0.092233784
0003a0 43 af 3f 3d 32 24 93 bc 3f 3e 04 bc bc a4 ac bb
       0.046798002 -0.017961595 -0.008071481 -0.0052686613
0003b0 99 f0 ec 3c 3f d0 88 bd ee a6 ac 3d 63 e1 9c 3d
       0.02892332 -0.06680345 0.08430277 0.076601766
0003c0 39 b0 03 bd ff 55 89 3b 0d 4c 4b 3d 43 9e a3 bd
       -0.03215048 0.0041911597 0.049633075 -0.079891704
0003d0 aa 40 96 bc dc 04 3c bd 7a 31 71 bd e5 d7 af bd
       -0.018341381 -0.04590307 -0.058885075 -0.085861005
0003e0 e0 b0 04 be 07 01 d1 bd f4 53 44 bd c7 91 76 bd
       -0.12958097 -0.10205274 -0.047931626 -0.060197618
0003f0 47 68 a9 bd 46 c2 05 bd b2 72 b2 bc 16 b7 63 3b
       -0.082718424 -0.032655977 -0.021783207 0.003474658

linOSS_layers.0.glu.w2.bias f4 [128]
000000 6c f7 19 be 95 cc 98 be c2 94 a4 be 76 ac b9 bb
       -0.1503579 -0.29843584 -0.32144743 -0.005666311
000010 bf 53 7e be 98 68 df bd 13 c1 be bd 92 be a3 be
       -0.24836634 -0.109086215 -0.0931417 -0.3198133
000020 f4 b7 a6 be 1d 5b 7a be 01 c3 39 be 3d 54 24 be
       -0.3256222 -0.2444882 -0.18140794 -0.1604776
000030 d8 0b 62 be 33 dd 51 be dc e1 7e be 62 d1 47 be
       -0.2207483 -0.20494537 -0.24890846 -0.19513467
000040 a3 a6 6e be 53 a6 b6 bd d2 fb 1e be 26 79 ca be
       -0.23305754 -0.089184426 -0.1552575 -0.39545554
000050 24 62 25 be 17 26 b3 be 73 b2 eb bd c9 41 ed bd
       -0.16150719 -0.34989998 -0.11508646 -0.11584813
000060 34 db b4 be 36 26 9d be 44 1f 39 be 63 c5 58 3e
       -0.3532349 -0.30693215 -0.18078333 0.21169047
000070 e9 ca 71 be c3 a9 8a be 01 0f 1d be 2b 32 9a bd
       -0.2361256 -0.27082643 -0.15337755 -0.075291
000080 98 3f 87 be 63 68 a7 be 8d a2 74 be da 6a 1f be
       -0.26415706 -0.32696828 -0.23890133 -0.15568104
000090 8d 71 31 be ac f6 d5 bc 59 f6 75 3d 0f 44 51 3e
       -0.17328472 -0.026118599 0.06004939 0.20436119
0000a0 26 7d 8c bd 99 ac 34 be 7e 35 8d be b1 32 ab be
       -0.06859808 -0.17643966 -0.27579874 -0.33437112
0000b0 e1 8e 5d be 00 d4 40 be dc e6 56 be f5 36 5c be
       -0.21636535 -0.18830872 -0.20986503 -0.2150534
0000c0 ba dd f1 bd 34 ef 67 be f7 a6 df be dd 59 66 be
       -0.11809869 -0.22649843 -0.43682072 -0.22495218
0000d0 bf 95 11 be 56 68 2b 3c ef 10 4f be 95 7d 61 be
       -0.1421728 0.010461887 -0.20221303 -0.22020562
0000e0 0a 43 41 be c9 8a 1e 3e bd 81 87 be 7c 18 8e be
       -0.1887323 0.1548263 -0.2646617 -0.27753055
0000f0 49 41 41 be 54 22 6b be 59 be ab be 47 0b 17 3e
       -0.1887256 -0.22962314 -0.3354366 0.14750396
000100 b4 87 9d be d5 ab 17 be d9 a5 6e be b0 cd 14 be
       -0.30767596 -0.14811642 -0.23305453 -0.14531589
000110 4c f3 c7 3d 8a 0c fa 3d bf cb 1c be 6e 2d 72 be
       0.09763202 0.12209423 -0.15312098 -0.23650143
000120 ce d6 94 be ef 3a b9 be f0 01 a2 3c 16 75 b6 bd
       -0.29070133 -0.36177775 0.019776314 -0.08909051
000130 84 ea 7a bd 05 d3 49 be b8 7f 25 be 82 a3 75 be
       -0.061258808 -0.19709404 -0.16162002 -0.23988155
000140 f1 f3 6e bc 51 7b 87 be 0b 2f 4a be b8 6c 89 3d
       -0.014584527 -0.2646127 -0.19744508 0.067101896
000150 89 b6 3d be 26 8a 84 be 4e 20 dc bd 03 7e 28 be
       -0.18526663 -0.2588665 -0.10748349 -0.1645432
000160 f5 10 40 be 0a 9e 3d be ef ea 4d be 5a 9f d9 bd
       -0.18756469 -0.18517318 -0.20109151 -0.10626097
000170 41 27 3b be 09 0d 76 be 0b eb cf be 3b a8 39 bd
       -0.18276693 -0.2402841 -0.4060901 -0.045326453
000180 90 bd 20 be b9 47 4a be 5b 5d 8c be b0 bd 90 be
       -0.15697312 -0.19753923 -0.27414975 -0.2826972
000190 f6 56 c7 bd 69 27 dc bd f2 ec 9f bd c7 54 96 be
       -0.09733383 -0.107497044 -0.078088656 -0.29361555
0001a0 22 95 c1 be f5 2c e9 3c c9 ca 65 be cb c5 11 be
       -0.37809092 0.02846382 -0.22440638 -0.14235608
0001b0 a8 ed 37 3d 01 e1 ae be 9a 32 c0 3d 91 20 60 be
       0.04490438 -0.3415604 0.093846515 -0.21887423
0001c0 4b 7d d1 bd 38 7f b1 be 5a 20 8b be 30 f6 6e be
       -0.10228976 -0.34667373 -0.2717312 -0.233361
0001d0 4d 8a 82 be 45 62 f1 bd c8 a3 96 be 83 e3 36 be
       -0.2549614 -0.117863216 -0.2942183 -0.17860226
0001e0 7a 73 de be a4 b5 03 be ec 06 21 bc f3 12 a4 be
       -0.43447477 -0.12862259 -0.00982831 -0.32045707
0001f0 f8 f5 93 be dd aa 7b be b7 91 b9 3d 67 9a 7b be
       -0.28898597 -0.24576898 0.09060996 -0.24570619

linOSS_layers.0.C.weight f4 [128, 128]
000000 5f 98 0a bd be cd ce 3c fc 4c d5 3b e6 e6 58 3d
       -0.03383672 0.02524459 0.0065094214 0.052954577
000010 54 55 8b 3c 4a 96 6e bd 77 e2 9c 3d 32 41 11 3e
       0.017008461 -0.058248796 0.07660382 0.14185026
000020 87 d1 11 3d 63 e3 73 bd 41 7e 28 3e 93 41 30 3d
       0.03560021 -0.059543025 0.16454412 0.043031286
000030 6f d7 6e 3c e4 1e d1 3d cb 3c 72 bd 93 bf 98 bb
       0.014577731 0.1021097 -0.059140008 -0.0046615093
000040 fa 44 49 bd 4b 59 df bc cf 3e 83 3c 7b 20 11 bd
       -0.049138047 -0.027264258 0.01602116 -0.035431366
000050 52 16 2d 3d cf 1e dc 3d 02 d6 ff bd c4 64 2f 3c
       0.042257614 0.10748064 -0.124919906 0.010705177
000060 a2 1b 25 bd 62 3c d1 3c bd e4 8e bd 32 7d c1 3b
       -0.040309556 0.025541488 -0.06977222 0.005904817
000070 f5 e4 6e bd f9 70 31 be c1 39 a3 3d aa f9 1a 3d
       -0.05832382 -0.17328252 0.0797 0.037835754
000080 38 e9 1a bc f6 bc 19 bc 28 13 d2 bd 0e 94 9e bd
       -0.009455018 -0.009383431 -0.1025756 -0.07743083
000090 ee 0a 1c bb f2 d9 37 3d 8f 4b 99 3d 74 06 a2 3e
       -0.0023810226 0.044885583 0.07485115 0.31645548
0000a0 8a 2b 04 bd bf 12 62 bb 5c 66 d8 bc 3b 53 3b 3c
       -0.032268085 -0.0034496037 -0.026415996 0.011433418
0000b0 70 09 89 bd e4 a5 d9 3c ce 4d b5 bb ec d1 dc 3c
       -0.06691253 0.02656836 -0.0055329567 0.026955567
0000c0 b4 68 56 3d 5d 64 c5 bd b2 4c 4a bd 62 8f a2 bb
       0.052345946 -0.096382834 -0.04938955 -0.00496094
0000d0 7d 90 36 bd 29 4b 02 3a 65 29 c1 3d b7 96 43 bc
       -0.04457139 0.0004970306 0.094317235 -0.011937789
0000e0 ca 97 04 bd 36 c3 ff 3d cf cc 8b bd 34 e7 7c bd
       -0.03237132 0.124884054 -0.068261735 -0.06174393
0000f0 a0 02 06 3d 67 03 97 bc 0e 4c 09 bd 8c e6 cb 3c
       0.032717347 -0.01843424 -0.033519797 0.024890207
000100 d0 8c 9a bc 45 ff 56 3b ac 03 f7 bc a9 5e 15 bd
       -0.018865973 0.003280596 -0.030153118 -0.036467228
000110 9f 41 7f 39 ee 26 29 3d cc d0 58 bc e5 0a 55 3d
       0.00024343141 0.041296892 -0.013233375 0.052012343
000120 3b 81 d5 3c c5 7c 9c be e7 f6 84 3d 0c e3 d1 3b
       0.026062598 -0.30563942 0.064924054 0.00640524
000130 86 d5 fb bc f3 54 dd 3c 86 ae 7d 3d dd 21 8c bd
       -0.030741464 0.027018046 0.061934017 -0.068423964
000140 6b 6c b7 3c c4 66 b6 3b ef 57 0a bd b3 93 4e 3d
       0.022390565 0.00556645 -0.033775266 0.050433826
000150 81 c6 dd bd a4 31 31 3e 40 50 f1 3c c4 9f 7c bc
       -0.10828877 0.17304093 0.029457211 -0.0154189505
000160 dc 14 b0 bc f2 ca 82 3c 27 90 35 3e 89 1c 62 bd
       -0.021494322 0.015965912 0.17730771 -0.055202994
000170 b2 91 e6 3c fb a1 7b bd e1 c7 67 bc 12 8d b3 ba
       0.028145645 -0.061433773 -0.014146776 -0.0013698658
000180 72 5a c9 3d 0e 9b 0c bd 07 f0 20 3d 63 9c 23 bd
       0.09831704 -0.03432756 0.039291408 -0.039944064
000190 22 e9 d0 bc 83 fc e4 bc af 43 9b 3d 80 47 5a bd
       -0.025501791 -0.027952438 0.07581269 -0.053290844
0001a0 e0 a9 c7 3c 54 97 af bd f7 6d 90 bd 3d fb 9c bd
       0.024372995 -0.085737854 -0.07052224 -0.076651074
0001b0 9b a3 f0 3c 5c 4b 03 be a1 e7 24 be 37 ce e9 bb
       0.029374888 -0.12821716 -0.16103984 -0.0071351784
0001c0 2d 83 8e bd 92 a4 f9 bc a1 a2 6c 3d e1 da 6f 3c
       -0.069586135 -0.030473981 0.057772283 0.014639587
0001d0 9e 93 b2 bc ff 29 0e 3d 03 4e 28 3d 0d 66 a3 ba
       -0.021798905 0.03470802 0.041090023 -0.0012466327
0001e0 61 6d 18 3c de 52 c8 39 e0 6a 10 3d 19 2c b6 bb
       0.009303422 0.00038208714 0.035258174 -0.005559456
0001f0 55 3e 77 bd 4b 1e d2 3c 9c 29 3b bc f1 54 06 be
       -0.06036218 0.02564921 -0.011423495 -0.1311834
000200 8b d3 73 bb c8 b0 0e bd 0f 20 63 bd a0 99 5b 3d
       -0.0037204947 -0.03483656 -0.055450495 0.053613305
000210 5c 2f bf bd e7 48 a0 3b 92 ab ac bd 79 2c 8e bd
       -0.09335205 0.004891503 -0.08431162 -0.06942076
000220 1a 5f c9 3c a9 14 3f 3d 68 60 4f 3c 64 b9 70 bd
       0.02458148 0.046650562 0.012657262 -0.058770552
000230 dd 6b 5d 3c 18 aa 8c 3d 16 e4 2c bd d4 6b 72 bd
       0.013514486 0.0686838 -0.042209707 -0.059184864
000240 ef f2 77 bc e5 d6 92 3c 6d 25 89 3d 5a 12 18 3e
       -0.0151336035 0.017924735 0.066965915 0.1485075
000250 04 90 c7 bd 73 5c d9 3d 81 0a 8d 3d 1a ce 44 3b
       -0.09744266 0.106133364 0.06886769 0.0030030073
000260 76 0c 9d 3b 6e 6d d4 3c 66 b1 d7 bc 2f 24 40 bd
       0.004792745 0.025931086 -0.026329707 -0.046909507
000270 8d 25 94 bd 11 66 c2 3d 7c 5b 05 bc 33 51 7d bc
       -0.07233725 0.09492124 -0.008139487 -0.015461254
000280 c9 71 9e bc 8a aa 0a be fc c7 3f bd a9 78 5a 3c
       -0.019341366 -0.13541618 -0.04682158 0.013334432
000290 47 d5 83 bd d4 d7 7b 3d 0f 8a 91 bd be 01 2b bc
       -0.06437164 0.061485127 -0.07106411 -0.010437427
0002a0 2a 91 c4 bd 8d fc ba 3c 81 e9 73 3c d7 2e af 3c
       -0.09598 0.022825504 0.014887215 0.02138464
0002b0 98 18 42 3d 9c 48 57 bd 9b 0f 49 bd 50 9b 01 3e
       0.047386736 -0.05255948 -0.04908715 0.12656903
0002c0 c8 f1 0d be ad 10 28 3e 09 a1 a3 bd 84 67 a2 bd
       -0.13861763 0.16412611 -0.079896994 -0.079299
0002d0 bb a2 a4 3d 21 e2 bb bd 4a 46 6a bc c5 59 85 bc
       0.08038851 -0.0917399 -0.014298985 -0.016278157
0002e0 d6 e6 64 3d 06 7a cf 3d b0 0a 79 bb 31 76 e4 3d
       0.055884205 0.10130696 -0.0038000755 0.11155356
0002f0 d4 15 41 3b 7c 7f f4 bc 07 ea d1 bb a4 5d 83 bc
       0.0029462473 -0.029845946 -0.006406072 -0.016035862
000300 4e 60 20 bd c7 fa 0f be 98 15 49 bd 3c 00 33 3e
       -0.039154343 -0.14060508 -0.04909286 0.17480558
000310 17 a9 6b 3d c2 97 dc 3c f7 20 8b 3c 2e 02 18 3e
       0.057534304 0.026927833 0.016983492 0.14844581
000320 b0 10 9d 3b 6e 81 5e 3e e2 74 f0 3c c6 1f 8c bb
       0.004793249 0.21729061 0.029352609 -0.0042762486
000330 bb fb 0e 3e 64 c2 c6 bc fd b4 11 be e7 54 d5 3d
       0.13963215 -0.024262615 -0.14229198 0.104165845
000340 d2 84 02 3e 7f 2a 28 3d 6e a3 3f 3d b0 f6 ef bd
       0.1274598 0.041056152 0.046786718 -0.11716974
000350 73 0a 6e bd 9d 32 bc bc 04 32 85 3d a1 5c 09 be
       -0.058115434 -0.022973353 0.0650368 -0.13414241
000360 8d 9e 70 bc f9 bc 27 bd 52 32 e1 3d a0 9d 14 bc
       -0.014686239 -0.040951703 0.10995926 -0.009070784
000370 d3 4a ef bc 0f 7f da bb 05 09 22 3e 59 f0 48 3d
       -0.029210484 -0.0066679786 0.15823753 0.04905734
000380 93 f7 92 3c f7 4b dd bd 9e 52 05 3d 24 44 18 3e
       0.017940318 -0.10805505 0.032549493 0.14869744
000390 a1 b8 bd bd 94 ee 00 bd df 07 8d bd ef b6 fe bc
       -0.09263731 -0.031477526 -0.06886267 -0.031093089
0003a0 9d 5c 48 be 93 1e 4b bd 43 52 8c bc d4 2e d7 3d
       -0.19566579 -0.049589705 -0.01712907 0.10506979
0003b0 a9 f7 f8 bc 81 03 22 be 26 32 5b 3d 0e 0d b2 3d
       -0.030391531 -0.15821649 0.053514622 0.08693896
0003c0 e1 09 a2 3d b2 1d 6b bb 98 ae 16 be 72 1d db bc
       0.079120405 -0.0035875854 -0.1471504 -0.026747439
0003d0 1b 15 7f bc 01 39 a6 3d 1e 13 72 3d 55 42 06 bd
       -0.015568997 0.081163414 0.059100263 -0.032778103
0003e0 1d ac 22 be f3 92 d1 bb 8a 64 d1 bc bf 25 91 3c
       -0.15885969 -0.0063956915 -0.025560636 0.017718194
0003f0 ce 82 71 3b a4 06 18 3d 65 dd 34 3e 22 78 75 3d
       0.0036851647 0.037115708 0.1766258 0.05992902

linOSS_layers.0.C.bias f4 [128]
000000 a0 aa 0c 3d d1 0c 97 bc ed d5 c3 3d 51 91 fd 3d
       0.03434241 -0.018438729 0.095622875 0.123812325
000010 4b aa e7 3d bb b3 cc 3c 88 31 9c bd a4 60 83 bb
       0.11311778 0.024988046 -0.07626635 -0.004009323
000020 9b 46 6e bd 31 93 78 3d 1e 70 98 3b 4e 0b e9 bc
       -0.058172803 0.060687248 0.0046520373 -0.028447773
000030 26 7e 28 3d 23 8a ed bd 31 b2 68 bc e2 c7 a5 3d
       0.04113593 -0.11598613 -0.01420264 0.08094765
000040 e0 f4 81 3c 8a fb 8f 3d 05 c7 1f 3c b0 57 3c bb
       0.015863836 0.07030399 0.00975204 -0.002873879
000050 92 9a 13 3c 55 27 9c bd 6a c2 b0 bd 8d 05 84 bd
       0.00900902 -0.076246895 -0.086308315 -0.06446371
000060 cc c9 d0 3d e4 a9 1c bc ab 7d aa bd d7 7b 84 bd
       0.1019474 -0.009561989 -0.083247505 -0.06468933
000070 4d 3d 80 be 67 5c 23 be a1 4c 5f 3d f5 16 78 3d
       -0.2504677 -0.15953217 0.05451644 0.06056877
000080 2f 0c a9 bb 80 63 42 3d 28 f3 d1 3d 28 76 04 3d
       -0.005158923 0.04745817 0.102514565 0.032339245
000090 5b bf 99 3d a3 09 21 bc 42 c3 d6 3c f4 7b 11 3d
       0.07507201 -0.009828958 0.026216153 0.0355186
0000a0 c9 e5 8a 3c 21 c7 c1 bc 1a bf e5 3d b6 6a 9a 3d
       0.016955273 -0.023654522 0.1121809 0.07539885
0000b0 4a cb 4b bd 9c 0f 7e bc 06 52 a2 3d 9a 8d ad bd
       -0.04975442 -0.015506651 0.07925801 -0.08474274
0000c0 7e bb 50 bd 79 f3 6f bd e9 8a 9a 3d 98 b5 3f bd
       -0.050960056 -0.058581803 0.07546026 -0.04680404
0000d0 28 4f 9d bc 57 b1 c4 bc 50 df e0 39 b6 55 02 be
       -0.019202784 -0.024010343 0.0004289099 -0.12728009
0000e0 7e 04 a1 3d 9d 5d 4a bd bb 5c 06 3d e4 ab 07 bd
       0.07862185 -0.049405683 0.03280328 -0.033122912
0000f0 de 6a 0d be c5 96 fc bd 65 0a 5e 3a 15 0e c3 bb
       -0.13810298 -0.123334445 0.0008470177 -0.0059526064
000100 7e 20 18 3d 95 30 20 3a b7 88 5a 3d b0 c5 d9 bc
       0.037140362 0.0006110755 0.053353038 -0.026583523
000110 7c 83 9d bd 35 99 89 3d af ae 39 3d 9e 67 8a 3d
       -0.07691094 0.06718675 0.045332607 0.06758045
000120 6d d9 23 3d ae 85 36 ba c0 8d 47 3d 84 54 d2 bd
       0.040002275 -0.0006962669 0.048719168 -0.10270026
000130 7c 85 d5 bd 43 58 0d bd 52 d7 79 bd d9 ca 61 3d
       -0.10425851 -0.034508 -0.06099636 0.05512509
000140 6a df 1c be a4 72 f7 bb 5a 0e 83 bc 17 c2 7b 3c
       -0.153196 -0.007551508 -0.015998054 0.015366099
000150 11 8b c6 bd 94 6a 29 be 32 09 fa bc 88 38 b5 bd
       -0.096944936 -0.16544563 -0.030521963 -0.08848673
000160 3e 73 54 bb 8d 5d be 3d 73 5c f5 ba 60 cd 19 3e
       -0.0032417323 0.09295187 -0.0018719569 0.1501975
000170 11 19 01 ba ad c8 01 3e 78 5d 21 3d 17 56 3f bc
       -0.00049246947 0.12674208 0.03939578 -0.01167824
000180 ab 0b 44 bd 0a 54 20 3b bf d5 31 bc a8 0c 3c be
       -0.04786269 0.0024464154 -0.010854184 -0.18364203
000190 99 4b 0e 3d 1f b0 b2 3d 6c 57 63 bd 1f 06 c5 3c
       0.034740064 0.08724999 -0.055503294 0.02405077
0001a0 33 21 d7 bd 92 00 0b be 43 1e d8 3c 75 fb e5 bd
       -0.10504379 -0.13574436 0.026381617 -0.11229602
0001b0 b9 68 a6 3c ba eb 05 3d 92 b4 75 bd a9 00 69 bc
       0.020313608 0.03269551 -0.05998666 -0.014221349
0001c0 56 ed 8d 3d 00 0f 4e 3d 64 5e 58 3d 9f b4 b5 3d
       0.06930034 0.050307274 0.052824393 0.08872341
0001d0 4a 85 a1 3d 02 86 49 3d 56 ae 50 bc 51 0e c6 bc
       0.07886751 0.049200065 -0.012736877 -0.024176748
0001e0 bc e2 ee 3d fd c0 d1 3d 8d b8 f7 3d d4 0c ef 3c
       0.1166434 0.10241888 0.12095747 0.029180922
0001f0 53 16 91 3d b2 26 a0 3c 7d 93 89 3d 2d 67 58 3d
       0.07084336 0.019549701 0.06717584 0.05283277

linOSS_layers.0.D.weight f4 [128, 128]
000000 51 dd a9 bc 9f 7a 90 bc 2e 6b 81 3d 8b eb b0 3d
       -0.020735415 -0.017636595 0.06319271 0.08638676
000010 2f b9 a1 3b 10 a9 d3 bb bf be bd 3d 82 13 fd bc
       0.0049354057 -0.006459363 0.092648976 -0.030893091
000020 db dc 25 3c 63 61 e5 3c 75 89 fd bd d5 95 a1 bd
       0.010123457 0.02800054 -0.123797335 -0.07889906
000030 2a 38 73 bd 8c c3 c8 bd 96 0e d7 3c bf 8c 1c 3c
       -0.059379734 -0.098029226 0.026252072 0.009555041
000040 c1 81 c8 3d 4d e2 ad 3d 1f 8b 6a bd fb 83 b9 bd
       0.097903736 0.08490429 -0.057261582 -0.090583764
000050 0a 5f 97 3d 1b 19 fb 3c a8 f4 5e bd e3 11 16 bd
       0.07391174 0.03065162 -0.05443254 -0.03663815
000060 3a fd dc 3d b6 3a 8a 3c 53 6b 5e bd 05 c9 0f 3e
       0.10790487 0.016873699 -0.05430157 0.14041527
000070 d0 24 c0 bd 9b 00 af bb a1 d2 50 bd b8 64 53 3c
       -0.093820214 -0.0053406483 -0.05098212 0.012902431
000080 cd 58 bd bd 0f b6 df 3b 48 50 43 bd 16 e4 81 3c
       -0.09245453 0.006827123 -0.047683984 0.01585583
000090 30 5a 94 bc c3 13 18 bd f9 9c dd bd 25 a0 c7 bb
       -0.018109411 -0.03712822 -0.10820956 -0.0060920888
0000a0 64 66 20 3d 4b 4b 9b 3d c0 00 70 bd da f5 65 3d
       0.039160147 0.0758272 -0.058594465 0.056142665
0000b0 94 e0 74 bd 1c 2e 69 bb 17 b7 a3 3d 0b c5 d2 3b
       -0.059784487 -0.0035580462 0.07993906 0.0064321808
0000c0 cc fa 83 bd e6 8f 01 3e 8b 94 98 bd 9e 46 8a 3d
       -0.0644432 0.12652549 -0.07450207 0.067517504
0000d0 c7 c9 3f 3d 95 7f e9 bc 53 7b 58 3c 37 c5 a4 bd
       0.04682329 -0.028503219 0.013212997 -0.08045428
0000e0 fd 0f e5 bd 45 46 b0 bd 3f 6c 72 3d 6e ae c6 bc
       -0.1118469 -0.08607153 0.059185263 -0.024253096
0000f0 5a 08 3f 3c 04 7b ad 3d 93 f7 ec 3d 93 af 94 bd
       0.011659706 0.08470729 0.115706585 -0.072600506
000100 7f be 15 3d e5 77 14 3d f4 d3 6e 3d 28 21 f2 3d
       0.036558624 0.036247153 0.058307603 0.1182273
000110 bf 8f d3 3d 88 85 51 3c cc 45 ac bb ed c1 17 bc
       0.10330152 0.012788184 -0.005257344 -0.009262544
000120 ab a0 95 bb 93 94 ad 3d 21 c3 11 3e b7 c7 82 3d
       -0.0045662723 0.08475604 0.14234592 0.06385749
000130 61 f0 3d bd f1 8e 22 3b e5 a6 2e bd 92 27 1f bd
       -0.04637182 0.0024804438 -0.04263963 -0.038856097
000140 d7 08 68 3d 9b d4 b5 bc d0 42 75 3d 26 56 4d bc
       0.056649055 -0.022196105 0.05987817 -0.012532746
000150 d6 40 2b 3d 75 0c 0b 3d 00 09 18 3d b7 5d a3 bd
       0.04180988 0.033947427 0.037117958 -0.07976859
000160 48 e5 42 3d 03 c3 ec 3c d2 54 fe bd 4e 63 ca 3d
       0.04758194 0.028901583 -0.12418522 0.09882222
000170 e7 ce e1 3b ee 76 4b 3c bb 03 54 bd 48 28 83 3c
       0.0068911198 0.012418492 -0.05176137 0.016010419
000180 31 95 6d bd cc 0f 6b 3c 04 8e cd bd b3 d3 75 bc
       -0.05800361 0.014347028 -0.10036853 -0.015004086
000190 fe 6e 03 3e 69 92 48 3c 82 70 b1 bc 84 6f 10 3c
       0.12835309 0.012241938 -0.021660093 0.00881565
0001a0 6a 01 ad bc 9b 93 ad 3c d8 60 13 3d db 7c 40 3e
       -0.021118838 0.021188548 0.03598103 0.18797629
0001b0 3f 19 64 3c 3f 2c aa bd df bc 7a bd 0e 3d b5 bd
       0.013922035 -0.083092205 -0.061215278 -0.08849536
0001c0 63 c8 a8 3d df 1b 8f bd a3 2b ec bc 2b 34 21 3d
       0.08241346 -0.06987738 -0.028829401 0.039356392
0001d0 4e 37 91 3d 72 e1 28 bd e9 51 fc 3b 7e f2 02 bd
       0.07090627 -0.041230626 0.007700194 -0.03196954
0001e0 f5 15 13 bd 0c 67 ee 3d 86 1c fc bb 2a 1f c1 3c
       -0.03590961 0.116407484 -0.00769383 0.02357443
0001f0 03 65 de ba 34 c4 bb bc fe bf c4 bd f1 6d 68 bd
       -0.001696736 -0.022920705 -0.09606932 -0.056745473
000200 77 98 31 bd 1f 68 2c 3b 17 de 1e 3d cd c2 6d bd
       -0.043358292 0.0026307178 0.03878602 -0.058047105
000210 8a e8 e0 3a be 63 4a 3c ef 4c 39 bc 57 d0 cd bd
       0.0017159146 0.012352882 -0.011309846 -0.10049503
000220 23 81 9d 3d d0 f3 af 3d 73 76 90 3d c5 61 c4 3d
       0.076906465 0.085914254 0.070538424 0.095889606
000230 b3 04 38 3c 7d 1f 79 bd 4d 9d 15 3c 08 b2 c4 3d
       0.011231589 -0.060821045 0.009131742 0.09604269
000240 29 c9 2a bd 56 c8 ad 3d 57 8a f0 3c aa 0e eb 39
       -0.041695748 0.08485477 0.02936284 0.00044833618
000250 6e 2c 5a bd b9 4b 41 bb ea 0d 6d 3d 43 3b 8d bd
       -0.053265028 -0.0029494597 0.057874598 -0.06896069
000260 36 c5 ef 3c d8 74 15 bd 65 09 a7 3c 34 09 c4 3d
       0.029268842 -0.036488384 0.020390222 0.09572068
000270 33 57 72 3d 1b 8b 5b 3d be 08 c2 bc 47 47 d3 bc
       0.05916519 0.05359946 -0.02368581 -0.025790824
000280 91 17 28 3d 47 4e 98 3d 81 79 79 3d 03 76 0a bd
       0.0410381 0.07436805 0.06090689 -0.03380395
000290 4b 2a 31 3c 7a 42 5c 3d 47 9f ad bd 21 25 c7 3d
       0.010813306 0.053774334 -0.08477645 0.09723879
0002a0 a1 60 64 3c f1 37 77 bd d4 1d 93 3d 82 ed f3 bc
       0.013939054 -0.060356084 0.07183424 -0.029776338
0002b0 c6 b5 a3 3d e1 f5 91 3c c7 3d fe 3d f6 29 ae bd
       0.07993655 0.01781744 0.12414127 -0.08504097
0002c0 1f 60 c6 bd 2b 56 7c 3d 35 20 9a bb 4e 4d fe 3c
       -0.096863024 0.061605614 -0.0047035464 0.031042721
0002d0 b1 c7 8c bd cb c1 ad bd 5e 25 05 bd a1 bc 9c 3d
       -0.068740256 -0.08484229 -0.03250634 0.076531656
0002e0 07 ca 8a 3d 40 01 26 bd e0 9d 06 bd 11 41 07 bd
       0.06776815 -0.040528536 -0.032865405 -0.033021037
0002f0 e3 f3 9a 3d 66 d0 79 3d 92 ca a5 bd f9 1a 42 3d
       0.07566049 0.06098976 -0.08095278 0.047389004
000300 1f 08 56 3d 5c 92 36 3b 82 7f 7c 3d 08 b2 5b 3d
       0.05225384 0.0027858233 0.06164504 0.05363658
000310 79 06 09 3d 7e b8 f9 3c f8 73 35 3d db d5 5f bd
       0.03345344 0.03048348 0.04430005 -0.054647308
000320 d3 ae 74 bd d9 fe 8b bd 5d c0 bc bc fe e5 7a 3c
       -0.059737038 -0.06835718 -0.023040945 0.0153136235
000330 ab f0 c2 3c 9a c9 8a bd 12 67 a7 3c 56 81 a1 3d
       0.0237964 -0.06776734 0.02043489 0.07885997
000340 76 9e ca 3d aa 05 37 3c 03 f6 a0 3c a8 25 c6 bd
       0.09893505 0.011170784 0.019648558 -0.09675151
000350 f6 23 aa 3c af f1 25 bd b8 b1 68 bd 4d 93 41 bc
       0.0207691 -0.04051369 -0.05681011 -0.011814904
000360 1f bb b5 3c a7 b5 49 3d 50 1c ac bd 32 f9 6d 3d
       0.022183953 0.049245503 -0.08403838 0.05809898
000370 9c ae 31 bd d4 17 88 bd 97 4a 42 3c 78 e9 ff bc
       -0.04337941 -0.0664517 0.011858604 -0.031239256
000380 02 26 15 bd e7 ac 1d bd 80 10 d0 bd ec e2 30 bd
       -0.0364132 -0.03849497 -0.10159397 -0.04318516
000390 bf a2 c0 bb 48 cf 35 bd a6 8f a0 3a 25 0f c0 bd
       -0.005878776 -0.044387132 0.0012249842 -0.093778886
0003a0 1c 8a ac bc cd 3a a8 3d 34 c5 3a 3d 49 dd c2 3d
       -0.02106195 0.0821434 0.045598224 0.09514863
0003b0 06 ba b5 bc 4d bd 90 bb f1 d0 c5 3c cb ca aa bd
       -0.02218343 -0.0044170977 0.024147483 -0.08339461
0003c0 cc b9 12 bd 53 10 51 bd 95 bc 96 3d d6 9e 45 3d
       -0.03582172 -0.05104096 0.07360188 0.04824718
0003d0 73 d8 4e bc f8 c0 3c 3d 74 cd c6 bd bb c3 be bd
       -0.012624848 0.046082467 -0.09707156 -0.093146764
0003e0 92 bf 70 3d d3 24 d4 3c e4 95 45 3d bc 29 90 3b
       0.058776446 0.025896465 0.04823865 0.0043995064
0003f0 13 a1 a7 3b c9 2e 94 bd 99 92 91 bd fb f4 0c 3d
       0.005115637 -0.07235486 -0.071080394 0.03441332

linOSS_layers.0.D.bias f4 [128]
000000 70 e2 5d bd 19 f2 a1 3c bd c5 b1 3d 1c 26 ce 3d
       -0.054171026 0.019768761 0.08680294 0.100658625
000010 55 25 2e 3e ec 2e 09 bd aa b2 61 3d 92 05 bd 3d
       0.17006429 -0.033492014 0.055102028 0.09229578
000020 d4 6c b9 bc eb f7 23 bd fb 0c 68 3c 7a 51 8f bd
       -0.022634901 -0.040031355 0.014163251 -0.06997962
000030 5f 1e 1f bc f7 b2 13 be 90 2d 9d bd ca 99 fe 3d
       -0.009711831 -0.14423738 -0.07674706 0.12431677
000040 e0 f8 9b bb ab 34 65 3c a1 d3 7e 3d 2a 63 c8 3d
       -0.004759893 0.013989608 0.062213544 0.09784539
000050 21 7e e6 bc 2f 59 6f 3b 6a c5 44 bd dc 2f 95 bd
       -0.028136315 0.0036521663 -0.04803983 -0.07284519
000060 a3 6d 18 bb 79 64 dc 3d 46 58 ca 3c bc df 7a bd
       -0.0023258708 0.10761351 0.024700295 -0.061248526
000070 fc 11 2f be 2a 5b 1d be c2 c7 01 3e 4e aa 71 3d
       -0.17096704 -0.15366808 0.12673858 0.059000306
000080 33 a9 c6 3d b2 71 19 3d 08 2d c2 3d 42 b2 5b 3c
       0.09700241 0.037461944 0.09481245 0.013409199
000090 08 2f cf 3d 28 2e 22 bd fe 7a 36 3c d5 23 a7 bd
       0.101163924 -0.0395948 0.011137722 -0.08161131
0000a0 51 c4 03 3d 4b a4 20 bd c8 5c ab bc 6e 40 11 bd
       0.032169644 -0.039219182 -0.020918265 -0.035461836
0000b0 22 69 e0 bd 4a 08 14 3b 4c 53 57 3b 1f e9 87 bd
       -0.109575525 0.0022587948 0.0032856045 -0.06636261
0000c0 26 96 c2 bd a7 3a b6 3c d8 6a 10 bd 51 37 c2 bd
       -0.09501295 0.022244764 -0.035258144 -0.09483207
0000d0 ba 70 44 3d d9 b5 3f 3d 05 6c 3e 3d 2e 9b 0d bd
       0.047959067 0.046804283 0.046489734 -0.03457182
0000e0 45 2b b3 3d 9f d5 15 3b 0c 5a cc 3d 82 78 2b 3d
       0.087484874 0.0022862924 0.099781126 0.041862972
0000f0 f7 30 32 be aa 50 fb bd 44 81 57 3c 81 32 a7 3c
       -0.17401491 -0.12271245 0.013153378 0.020409824
000100 e7 de d2 3d 7e 2b 62 bd 9a da 2c 3d 55 d3 95 3d
       0.102964215 -0.05521726 0.042200662 0.07315699
000110 36 a5 cf bd 1f 2d b2 3d 19 f7 e8 bc a1 4a 51 3d
       -0.10138933 0.087000124 -0.028438138 0.051096562
000120 93 17 d2 3d f7 78 4e bd f6 9a 60 3d f8 32 b0 bd
       0.10258403 -0.05040833 0.054835282 -0.086034715
000130 40 b6 ee bd b5 9c e2 bc 9d b8 17 bc 44 7c 46 3d
       -0.11655855 -0.027662614 -0.009260324 0.048458353
000140 53 39 5c bd 22 40 97 3d 50 74 5e 3d 28 55 96 bd
       -0.053765606 0.07385279 0.054310143 -0.07340461
000150 ec fd 39 bd 8f 9a 36 be 8d 7c f0 bc 35 fb a0 bd
       -0.045408174 -0.17832397 -0.029356265 -0.07860414
000160 ba 23 c1 3b 1f 7a d2 3d 03 9a 8d bd ef 8d a7 3d
       0.0058941515 0.10277199 -0.06914141 0.081813686
000170 aa 91 bc 3d 3c 43 d3 3d f6 a8 6d 3d 8b 55 a3 3d
       0.09207471 0.10315558 0.05802246 0.079753004
000180 79 9e 60 bc 6c 19 b1 bc 55 93 cc 3c 57 cb 62 bd
       -0.013709658 -0.021618567 0.024972597 -0.0553697
000190 39 1a 3a 3d eb 8f 7b bc 20 c8 af bd 94 a8 a2 3d
       0.045435164 -0.015354137 -0.08583093 0.0794231
0001a0 1e 37 1e bd e1 87 13 be 3f 3c bd bd b1 2c 34 bd
       -0.038626783 -0.14407302 -0.09240007 -0.043987934
0001b0 5f 6d 61 bd da 55 31 3c a9 14 d5 bd 4b b7 0a be
       -0.055035945 0.010823691 -0.10404331 -0.13546483
0001c0 c2 c8 23 bd 29 14 2c 3d 29 b5 87 3d 3e a0 0f bc
       -0.03998638 0.042011414 0.066263504 -0.008766232
0001d0 a2 f0 41 bb c3 e7 77 bc 34 bc 2b bd 62 5c 40 3b
       -0.0029592891 -0.01513094 -0.04192753 0.002935194
0001e0 04 ea 0e 3e 58 1e ba 3d 52 32 74 3d 0d 47 09 3b
       0.13956457 0.09087819 0.0596183 0.002094689
0001f0 ac 9e f0 3b 4d da a4 3d 36 46 99 bd e6 bf 57 bd
       0.007343134 0.0804945 -0.07484095 -0.052673243

linOSS_layers.0.norm.weight f4 [4]
000000 00 00 80 3f 00 00 80 3f 00 00 80 3f 00 00 80 3f
       1.0 1.0 1.0 1.0

linOSS_layers.0.norm.bias f4 [4]
000000 00 00 00 00 00 00 00 00 00 00 00 00 00 00 00 00
       0.0 0.0 0.0 0.0

linOSS_layers.0.norm.running_mean f4 [4]
000000 00 00 00 00 00 00 00 00 00 00 00 00 00 00 00 00
       0.0 0.0 0.0 0.0

linOSS_layers.0.norm.running_var f4 [4]
000000 00 00 80 3f 00 00 80 3f 00 00 80 3f 00 00 80 3f
       1.0 1.0 1.0 1.0

linOSS_layers.0.B.weight f4 [128, 128]
000000 82 50 3f 3d c2 67 86 bd c5 c9 9a bd 32 a7 7f bd
       0.046707638 -0.06562759 -0.07558016 -0.06241531
000010 4e 95 dc 3c 13 cb db bc f8 19 97 3d d8 a8 9b 3d
       0.026926663 -0.026830232 0.07378 0.07600564
000020 05 00 a6 bc 65 bf b9 3d 48 76 73 3d 7d 50 1a bd
       -0.020263681 0.09069709 0.059438974 -0.037674416
000030 68 3a aa 3d 26 8e 17 3c ad e9 13 bd d7 16 26 3d
       0.08311921 0.009250199 -0.036111522 0.040549126
000040 92 73 96 bd b4 ac 48 bc 1a 27 7a 3a b2 89 10 3b
       -0.07346262 -0.012248207 0.000954257 0.002205473
000050 95 89 34 bd 22 99 11 3d 78 a4 21 bd 17 ad 6c 3c
       -0.04407652 0.03554643 -0.03946349 0.014445565
000060 75 66 b4 3a 21 03 c0 3c cc e6 15 3c 2c e0 a5 bb
       0.0013763445 0.023438992 0.009149265 -0.0050621238
000070 2f 33 8a bd d1 e1 61 3c 6c 3f a7 3d 89 a7 a7 bc
       -0.06748044 0.013786749 0.08166394 -0.02046563
000080 6a c6 9b 3d 3b 32 9f bd 64 0a 15 bd 76 11 e9 3d
       0.07606204 -0.077732526 -0.036386862 0.113802835
000090 7c da 4f bd 36 66 2e bb 11 87 72 bc ca 66 68 3c
       -0.050745472 -0.0026611215 -0.01480271 0.014184663
0000a0 9d af 5b bd c8 1c f7 3c ab c8 dc 3c 22 b3 a5 bd
       -0.053634275 0.030165091 0.026951155 -0.080908075
0000b0 f9 a0 91 3d 09 33 57 3d 5c 5c 97 3d 65 66 62 bd
       0.07110781 0.052538905 0.07390663 -0.055273432
0000c0 b3 24 cb bb 08 7b 11 3c 40 a6 d2 bb 96 db ab bd
       -0.0061994432 0.008879431 -0.00642851 -0.08391492
0000d0 e6 13 94 bd da a2 96 bd f6 52 4c bd 96 7e 37 bd
       -0.07230358 -0.0735528 -0.049883805 -0.044798456
0000e0 3c 9b fe 3c c2 85 75 bd d5 18 5c bc 04 b9 5d 3b
       0.03107988 -0.059942015 -0.013433655 0.0033832202
0000f0 5a d8 91 38 cb 00 e9 bb d3 34 68 bd b3 c5 bd 3b
       6.9544374e-05 -0.00711069 -0.056691002 0.00579139
000100 7a 60 b1 bb 80 fb d5 bd be ad 92 bd 5f 0c 41 bd
       -0.005413112 -0.104483604 -0.07162045 -0.04713094
000110 58 3f 1d bd 96 d3 7f 3c 86 80 b9 bc d8 86 fa bc
       -0.038390487 0.015614411 -0.022644293 -0.030581877
000120 d8 97 8c 3d 80 e0 18 3d 89 72 51 bd 69 0f ab 3c
       0.068648994 0.037323475 -0.05113462 0.020881372
000130 6a d3 e7 3c 3a 60 df bd 09 04 af bd 0d 9a bb 3d
       0.028299052 -0.10907026 -0.085456915 0.09160242
000140 e0 eb 08 3b 68 66 1f bd ef db 96 3c 05 d3 9b bd
       0.0020892546 -0.03891602 0.01841542 -0.07608608
000150 72 c5 98 3d df 7f 4c bd dd 3e 9a bb 9d 5b f0 bc
       0.07459535 -0.049926635 -0.004707201 -0.02934056
000160 3e 92 9f bb 32 7f 1a 3b d5 ca 0e 3d 9d 10 13 3d
       -0.0048697283 0.002357435 0.034861404 0.035904516
000170 66 ac 24 3d 18 9b 3d bd 4e 5a b0 3d a3 02 c7 3b
       0.040203474 -0.046290487 0.08610974 0.0060733124
000180 f0 de 66 3c b4 a5 99 bd ff 8f 0b bd 7f 01 3f 3d
       0.014091238 -0.075023085 -0.034072872 0.046632286
000190 79 06 e5 bc d3 a0 8b 3b 17 bc b2 3d f6 ae 28 bc
       -0.027957188 0.004261115 0.087272815 -0.01029562
0001a0 16 84 87 3b b7 80 28 bd 88 64 6e 3d d0 81 a8 3c
       0.004135619 -0.041138377 0.058201343 0.020569712
0001b0 9d 92 89 bd c0 b6 71 bb 7d 81 d3 3c 17 6f 0d 3d
       -0.067174174 -0.003688261 0.02581858 0.03452977
0001c0 5d fd 42 3d 75 1e 16 bd 64 eb 09 3d 76 08 d6 bc
       0.047604907 -0.03665014 0.03367175 -0.026127081
0001d0 14 3b 6e bd 08 af b0 bb 12 a1 30 3d 03 0a bb 3c
       -0.05816181 -0.005391959 0.04312236 0.022831922
0001e0 7f 8a 46 3c 13 b0 84 3d 1d 3e 39 3d 76 00 dd 3c
       0.012117981 0.06478896 0.04522525 0.026977759
0001f0 7e e1 66 3d 80 c5 4c 3d f0 69 4f 3d 87 45 b1 3d
       0.05636739 0.04999304 0.05063814 0.086558394
000200 06 85 8f 3d 14 f9 44 3d ea 65 94 3c 3a fc 29 3d
       0.07007794 0.048089102 0.018115003 0.041500308
000210 59 30 f9 3c 2b 63 24 bd 96 88 1c bd 37 06 b2 bd
       0.030418562 -0.040133636 -0.038216196 -0.08692592
000220 b5 b6 96 bd 0b 8f 14 bd c0 80 01 bd 54 f2 61 3d
       -0.07359067 -0.03626923 -0.031616926 0.055162743
000230 7a 2b 12 bc d2 42 84 bd ea ff 4a bc b2 3e 32 bd
       -0.008921498 -0.064580575 -0.012390116 -0.043516822
000240 a0 29 23 bd 44 a4 b4 3c c5 d1 fd 3b 5e de d7 bc
       -0.03983462 0.022050984 0.0077459537 -0.02635115
000250 e9 4c da bc 4e 70 bd bd f0 a2 19 3c 65 95 8c bc
       -0.026648002 -0.09249936 0.009377226 -0.01716108
000260 ed ed 02 bd 56 23 c7 3c 89 be 9e bd 1e 53 6d bd
       -0.031965185 0.024308842 -0.077511854 -0.057940595
000270 45 ed 8d 3d cb 3e 8b bd 36 19 2e bc a8 b4 f3 3c
       0.06930021 -0.06799086 -0.010626128 0.02974923
000280 1e c5 b6 3c a0 cc 6a bd 0e 66 2e bd ad 3c fd 3c
       0.02231079 -0.05732405 -0.042577796 0.030912722
000290 52 68 e6 3a 8f a1 c1 bd 54 3c 27 bc e4 df a9 3d
       0.0017578697 -0.09454643 -0.010207254 0.08294657
0002a0 8b 06 18 bb c6 be 0d 3d de a4 86 3d a3 51 86 bd
       -0.002319726 0.034605764 0.06574415 -0.0655854
0002b0 56 4e 8b bd 05 61 df ba 14 db d3 bd 8f 7f 6a bc
       -0.06802051 -0.0017042464 -0.1034452 -0.014312639
0002c0 87 4d 81 bd cb 2f b9 3d 0b 01 4a bd 96 f7 a5 3d
       -0.06313615 0.09042319 -0.0493174 0.08103864
0002d0 e6 0e cf 3d 69 61 39 3d 87 fc e5 3b 32 6f 3b bc
       0.101102635 0.045258913 0.007018629 -0.011440085
0002e0 58 13 28 bb 0a 64 20 ba e5 7c f7 3c 1d 4b a5 bd
       -0.0025646295 -0.00061184226 0.030210922 -0.08070967
0002f0 40 7a 13 bd c1 89 0a bc 2e 5b 57 3c d3 3d 84 3c
       -0.03600526 -0.008455695 0.0131442975 0.016142761
000300 cd e1 d6 3c 26 0a 86 3b 85 56 92 3d 8a ef 06 3d
       0.026230717 0.0040905653 0.071454085 0.032943286
000310 70 52 b6 3d f6 19 78 bd fe fc 3e bd 35 34 87 3d
       0.089024425 -0.060571633 -0.04662799 0.066017546
000320 08 86 09 bd 4d eb 75 bd 0f 57 3c 3b 1a c6 60 3d
       -0.033575088 -0.060038853 0.0028738414 0.054876424
000330 86 5c 78 3d a9 96 4f bd 70 aa 6d 3d bb 33 89 bd
       0.060635112 -0.05068079 0.05802387 -0.0669932
000340 eb ad 1c bd eb 87 a5 3d df 8a 78 3d 31 cf bb 3c
       -0.0382518 0.08082565 0.060679313 0.022925945
000350 68 7f b3 bd 87 26 b0 bc da 1e e6 3d 28 92 f9 bd
       -0.08764535 -0.021502746 0.11236353 -0.1218608
000360 8a 42 7d bc 60 ef a5 bd 9f de 73 bd 3a 3f 98 3d
       -0.015457759 -0.08102298 -0.05953848 0.074339345
000370 3b 60 50 3d 39 d5 33 3d 02 e5 d5 3c 45 69 52 bd
       0.050873023 0.043904517 0.026110176 -0.051369924
000380 47 c9 a9 bc 99 d6 16 bd a1 36 5e 3c a8 aa 87 3d
       -0.02072586 -0.03682575 0.013562829 0.06624347
000390 3a 73 aa 3d 53 69 8f bb bf 83 96 3c 68 99 8e bd
       0.08322759 -0.0043765693 0.018373368 -0.06962854
0003a0 ce da 35 bd 6b 73 02 3d 09 45 bb bd 2a 1d 03 bd
       -0.04439812 0.031848352 -0.09144027 -0.032010235
0003b0 21 50 f9 3c d7 0d 2c 3c 89 ae 3f 3c 96 a1 ee 3b
       0.030433716 0.010501347 0.011699327 0.007282446
0003c0 d8 8e da bb 27 64 55 3d 62 8b 8d bc 8a e0 8a bc
       -0.0066698603 0.052097466 -0.017278377 -0.016952772
0003d0 5b 6c b7 3d 3c fb c5 3c 96 ac 87 3c b1 10 ea bb
       0.08956214 0.02416765 0.016561788 -0.007143103
0003e0 ed 08 55 bc d7 ad 28 bd 4b ff 93 bd 14 85 84 bd
       -0.013002616 -0.04118141 -0.07226428 -0.06470695
0003f0 3f d7 d2 3c 48 e0 9c bb 36 f8 64 3c a7 5d dd bd
       0.025737403 -0.0047874786 0.013975194 -0.108088784
