models/LinOSS_model.pth (torch, 56158 bytes, 26 tensors)

linOSS_layers.0.C.weight f4 [32, 32]
000000 cb 85 9c bd 77 29 56 bd b0 51 0a be 83 28 e8 bc
       -0.076427065 -0.052285638 -0.13507724 -0.02833963
000010 e2 a2 e9 3c f8 db d7 bd e6 e1 0f bb 0d 20 ef 3d
       0.028520051 -0.105400026 -0.0021954714 0.11676035
000020 e9 61 1f bc a5 08 3b 39 7f 08 e9 bb 5f 82 d9 3c
       -0.009727933 0.0001783693 -0.0071116085 0.026551424
000030 be 36 d2 3d 46 65 21 3e 56 ee d1 3d a5 c9 21 3e
       0.102643475 0.15761289 0.10250537 0.15799578
000040 14 35 a4 bb 65 8c 18 be 31 d2 97 bd 10 7f e2 3d
       -0.00501121 -0.14897306 -0.07413138 0.110593915
000050 2d 93 b8 b6 0a 1b a0 bd af ae 00 be c3 55 1f be
       -5.500761e-06 -0.07817657 -0.12566637 -0.15560059
000060 5c ba 0e be 7a 27 da bc c1 a3 b2 3d 32 d6 af 3d
       -0.13938278 -0.026630152 0.0872264 0.085857764
000070 e9 80 24 be be db cd 3d 3a 9c 03 be 8d 4e e6 bc
       -0.160648 0.10051678 -0.12852564 -0.028113628
000080 46 32 7e bd 64 b2 cb bc 00 f7 d0 bc 68 5f 18 be
       -0.062059663 -0.024865337 -0.025508404 -0.14880145
000090 ad 3d 12 be bb f4 98 bc 42 a8 2c b7 70 ae 90 bd
       -0.1428134 -0.018671384 -1.02911745e-05 -0.07064521
0000a0 c6 7b 69 3d c8 dc 18 be fd 75 8d bb 6a 21 15 3e
       0.057002805 -0.14927971 -0.004317044 0.14563528
0000b0 47 f0 7f bd 18 65 19 3e 23 05 5f 3d fc 4b 19 be
       -0.062485006 0.1497997 0.054448258 -0.14970392
0000c0 29 14 d1 3d 2d 01 41 bc 68 d8 8d bd 95 b5 06 3e
       0.10208923 -0.0117800655 -0.06926042 0.13155206
0000d0 45 3c 08 be b4 54 2b 3c 37 69 e3 bc 40 7f ee 3d
       -0.13304241 0.0104572065 -0.027760131 0.11645365
0000e0 82 72 23 3d aa 23 9a 3d 77 8d 58 3d c5 d2 07 bd
       0.039904125 0.07526334 0.052869286 -0.03315999
0000f0 4c bd e4 bc 19 20 0b be 61 45 b0 3d f4 ae 05 3e
       -0.027922295 -0.13586463 0.08606983 0.1305502
000100 29 b2 e3 3d 24 57 eb bd 70 b9 bd 3a 0b 2e eb bd
       0.11117966 -0.1149123 0.001447482 -0.114833914
000110 c0 63 b3 bd e7 05 bf bd 5d 59 50 3d e9 ca c3 bd
       -0.0875926 -0.09327298 0.050866473 -0.095601864
000120 36 ca 0b b7 c8 92 9c 3a 19 63 d5 3d bd 9b fd bd
       -8.3321265e-06 0.00119456 0.10419292 -0.1238322
000130 c1 85 e4 bd f7 48 be bd 64 5f e9 3d 2c 16 5d bd
       -0.11158324 -0.09291261 0.113951474 -0.053976223
000140 4e a2 0e 3e 97 a0 5e 3d d7 78 5f 3c bb 9c cb b6
       0.13929102 0.05435237 0.01363965 -6.0681173e-06
000150 af db d2 bc 10 4f 5c 3c af 5e fe bc be fe c6 b6
       -0.025739519 0.013446584 -0.031051008 -5.9305157e-06
000160 c6 1c 62 3c 22 8e 03 be d5 e0 a9 bd 5f 20 08 3e
       0.013800805 -0.12847188 -0.082948364 0.13293599
000170 f6 db 08 be ef bf a1 bb 70 fd 28 3e 5e 5c 5e 3d
       -0.13365158 -0.0049362103 0.16502929 0.054287307
000180 78 93 52 39 7b d0 12 be f1 80 9f 3d bd d5 ed bd
       0.00020082097 -0.14337341 0.077882655 -0.11613033
000190 75 d3 26 bd ca df 4b bd 03 49 8d bc e9 9e 83 b5
       -0.040729005 -0.04977397 -0.017246729 -9.80651e-07
0001a0 b2 41 0b 3e 46 99 5a 3c b0 12 18 3e ae 7f c9 3d
       0.1359928 0.013342207 0.14850879 0.09838806
0001b0 82 e7 d0 bd e7 99 8e 3d 8f e3 eb bd 43 b5 85 bd
       -0.102004066 0.06962948 -0.11518013 -0.065287136
0001c0 89 2c 2e 3d d7 0c 48 3d 01 8d fb 3d a1 1b 42 bd
       0.04252294 0.04884037 0.12282754 -0.04738963
0001d0 3e cc f7 b4 f7 84 a6 3d 14 fc 24 be be b3 f1 3d
       -4.615594e-07 0.0813083 -0.16111785 0.11801861
0001e0 96 a3 0b be e5 3c 73 b7 4d e2 ab bc a0 cb aa bd
       -0.13636622 -1.4498107e-05 -0.020981932 -0.0833962
0001f0 01 a5 6e 3c 6a a3 0b 3e cb e1 2c bd c0 fd c2 bd
       0.014565707 0.13636556 -0.04220752 -0.09521055
000200 37 8c 64 bd d5 55 29 be 90 a4 8f 3d 54 0d 9a bd
       -0.05579778 -0.16536649 0.0701381 -0.075220734
000210 4c 98 dd bd 6e a3 bc bd 92 39 bc 3d a1 d7 ab 3d
       -0.10820064 -0.09210859 0.09190668 0.08390737
000220 b1 e6 00 3e f5 6d 5f 3d 8f c1 4a bd 20 aa 23 bd
       0.12588002 0.054548223 -0.049500998 -0.039957166
000230 5a 1c 2f 3d 5e c1 0a 3e 1e 42 1e 3d 29 7c 97 bd
       0.042751648 0.13550326 0.038637273 -0.073967285
000240 f0 60 96 bd f7 12 21 be b6 e3 ec 3c 7c 40 b7 bd
       -0.07342708 -0.15729891 0.028917175 -0.08947846
000250 21 54 17 be b1 ab 14 3e f1 1d d7 bd f9 9b 3c bc
       -0.14778186 0.1451862 -0.10503758 -0.011511796
000260 6e b5 28 3d 22 39 ca 39 de 98 df bd be 46 08 be
       0.04118865 0.0003857101 -0.10917829 -0.13308236
000270 98 3e 06 3e 49 d5 a1 3c a4 20 0c 3e 1c ad 4b bd
       0.13109815 0.019755023 0.13684326 -0.049725637
000280 eb 7b 2e 3d 6e d7 fe bc c5 fb bb ba fb 88 c8 bd
       0.042598646 -0.031108584 -0.0014342001 -0.09791752
000290 82 cd 4d 3d 2e fb 3d 3d 02 12 f2 36 eb 78 f9 bc
       0.050244816 0.04638212 7.2142584e-06 -0.030453166
0002a0 e0 33 cb bd 56 57 e6 3d f5 73 f9 bd a7 9b 80 3d
       -0.09922004 0.11247127 -0.1218032 0.06279688
0002b0 5b 67 4c bd da d8 9a bd d8 68 b9 3c f9 30 a8 bd
       -0.049903255 -0.075608924 0.022633001 -0.08212466
0002c0 a3 a6 00 3d cd 04 d1 3c e1 c0 f8 bd 36 f4 a6 3c
       0.031408917 0.025514985 -0.12146164 0.02038012
0002d0 4f 77 86 3d ec 40 77 3d dd 6e 5d bc 5f 59 0a be
       0.06565725 0.06036465 -0.013515201 -0.13510655
0002e0 75 b7 95 bc be 58 54 3d 93 fa 60 bd 9b 8e 6b 3d
       -0.018275956 0.051842444 -0.054926466 0.057509046
0002f0 d5 18 dd 3d e9 29 a9 bd d1 95 39 36 15 fd 81 3d
       0.10795752 -0.08259947 2.7654353e-06 0.063471
000300 5d 95 c1 3b 77 37 db 3b d7 ab 5a 3c 95 44 04 be
       0.005907698 0.0066899615 0.013346634 -0.12916787
000310 9d 9e c2 3b e5 ac e6 3d 9d 0d 19 3e 4f d8 c0 3d
       0.0059393183 0.11263446 0.149466 0.094162576
000320 84 ac 73 3c 32 46 95 3d 43 4b 9c bd 4d f5 0b be
       0.014872674 0.07288779 -0.076315425 -0.13667794
000330 de 9a 11 be 01 81 2a 3e aa d5 d1 3d 91 3a e6 bd
       -0.14219233 0.16650774 0.10245831 -0.112416394
000340 44 f3 73 3d 1d 56 fd 3d d9 dd 2a 3e d6 38 14 3e
       0.059558168 0.123699404 0.1668619 0.14474806
000350 55 35 02 3e dc ab ff bc 6d f5 56 bd bd 93 0a 3e
       0.12715657 -0.031209879 -0.05248015 0.1353292
000360 47 f6 b6 3d 3a e9 c5 bd 99 ac 18 3e 9b 18 9b 3d
       0.089336924 -0.09663625 0.14909591 0.075730525
000370 81 75 b1 3d 9d f0 ce bd e9 ff 28 3d a1 af 56 bd
       0.0866499 -0.10104487 0.04125968 -0.052413587
000380 e0 66 03 3e 4e d3 b9 bc 96 8f 72 3d 42 90 b6 3c
       0.12832212 -0.022683766 0.059218965 0.022285584
000390 ce 4c 86 3d ac f8 4e bd 14 b0 9c 3d 16 d8 e8 bd
       0.06557618 -0.05053012 0.07650772 -0.1136934
0003a0 db d3 fa 3c 0e f0 e0 bd 61 80 28 be 09 53 07 be
       0.030618599 -0.10983287 -0.16455223 -0.13215269
0003b0 56 de 04 3e ac fa af 3d 44 c3 1f 3e 80 f9 06 3e
       0.1297544 0.08592734 0.15601832 0.13181114
0003c0 25 98 17 be 3c 0c e3 bd dd 13 a0 bc e4 1f d7 bd
       -0.14804132 -0.11086318 -0.019540722 -0.105041295
0003d0 21 5f e7 3d d9 a3 fd bd 90 ce 9c bd bf cd 24 be
       0.11297441 -0.12384767 -0.07656586 -0.16094111
0003e0 14 9f b9 bd dc d5 0a 3e ce 29 0a 3e d5 1e ef 3d
       -0.09063545 0.13558143 0.1349251 0.116758026
0003f0 cf bb 01 3e 8a e5 16 3e e5 f1 12 bd 74 89 8b 3d
       0.126693 0.14736 -0.03587522 0.068133265

linOSS_layers.0.C.bias f4 [32]
000000 da 48 21 be 13 1b 0e be ec be 9d b7 c4 99 04 3e
       -0.15750447 -0.13877515 -1.8804763e-05 0.12949282
000010 b6 f7 10 be 5a b8 8d bd c7 ec 14 3e 15 a2 a8 bc
       -0.14156994 -0.06919928 0.14543448 -0.0205851
000020 86 45 82 3d 3c 10 24 be a3 c5 3c bd 2b ff a3 bd
       0.06360917 -0.16021818 -0.04608692 -0.08007654
000030 84 8e 0e 3e 2d 8b 82 3d 34 1f f4 bd ab 94 9f 3c
       0.13921553 0.06374202 -0.11920014 0.01948007
000040 fd a2 60 36 ae 0a 81 bd f8 d2 ba bd 8d 3b 49 bd
       3.3473473e-06 -0.06300865 -0.0912227 -0.049129058
000050 c8 a4 04 3e bf 7c ef bd 8b db ed bd b8 7e 38 bd
       0.12953484 -0.11693715 -0.1161414 -0.045042723
000060 5e bc cc b7 a2 7c 1e 3d 5e 05 94 39 87 00 08 bd
       -2.440641e-05 0.038693078 0.0002823276 -0.033203628
000070 e1 8f c7 bd 52 1c b9 bc 0b 18 7c bd 90 34 08 3e
       -0.097442396 -0.022596512 -0.061546367 0.13301301

linOSS_layers.0.D.weight f4 [32, 32]
000000 91 20 26 be 84 f1 d2 bd 8e 3a 09 be 55 ca bd bc
       -0.1622336 -0.10299972 -0.13401243 -0.023167768
000010 7c 06 03 3e 15 9c 14 3e 1e 87 13 be e0 c3 ac ba
       0.12795442 0.14512666 -0.14407012 -0.0013180934
000020 c6 8f c0 3d da d2 8b 3d b7 39 0a 3e b0 aa 38 b9
       0.094024226 0.06827326 0.13498579 -0.00017611193
000030 5f 3d df bd e4 7e db 3d 85 30 51 bd a0 96 a7 3d
       -0.109003775 0.10717562 -0.051071662 0.08183026
000040 05 13 0c bd 50 2a 86 3d 87 bf 18 3e 30 40 1e 3e
       -0.034197826 0.06551039 0.14916812 0.15454173
000050 00 ac 1a be 3f 7a db bd 21 fa 81 bd f9 e2 d2 bd
       -0.15104675 -0.10716676 -0.063465364 -0.10297198
000060 96 9c 23 3e 26 76 f3 bb 50 26 dc bd 9a 55 8d bd
       0.15977702 -0.007429856 -0.10749495 -0.06901093
000070 8b 11 b4 bd 20 01 80 3d 9d d5 13 be 1a b6 1e be
       -0.087924086 0.062502146 -0.14436956 -0.15499154
000080 6e 5c 28 be 20 1f 88 3d b2 2b 9f 3d ce e1 cc bd
       -0.16441509 0.066465616 0.07772006 -0.10004006
000090 a2 2c 0d 3d 95 32 f7 3d 60 6c 89 3c c5 8c e6 bc
       0.034466393 0.12070195 0.01677531 -0.028143296
0000a0 f2 b0 ab 3b 0a 20 2b bc f9 6e a2 3d e1 cf e1 bd
       0.0052395994 -0.01044465 0.079313226 -0.11025978
0000b0 cf bb a3 3d 19 22 b8 3d ea 63 c7 bd 2a c4 09 3e
       0.07994806 0.089908786 -0.09735854 0.13453737
0000c0 d9 b6 27 3e a0 19 76 bd 88 20 24 bd eb 93 a0 3d
       0.16378345 -0.06008303 -0.040070087 0.07840713
0000d0 5e c6 03 be 31 fc 76 3d 1a b7 02 3d 39 39 d0 3d
       -0.1286864 0.060299102 0.0319129 0.10167164
0000e0 e8 2c 13 be 54 56 0c be 94 d3 8e 3d 76 9f 5d 3d
       -0.14372599 -0.13704807 0.06973949 0.054107152
0000f0 5b 6a 1e be e1 fa b5 bd 7a 8f 1b be 02 55 ef bd
       -0.15470259 -0.08885742 -0.1519145 -0.11686136
000100 a1 92 8f bd 1a c0 0b 3e 99 cb d4 bc a7 01 bc 3d
       -0.07010389 0.136475 -0.02597599 0.09180003
000110 02 d6 21 3e e8 34 91 3d 5c fc 17 be 70 55 a2 3d
       0.15804294 0.07090169 -0.14842361 0.07926452
000120 12 e4 6c 3d c0 43 02 3e 97 7b 28 be 25 b1 ca 3d
       0.057834692 0.12721157 -0.16453396 0.09897069
000130 b5 1f 0a 3e c5 57 1e be e6 36 24 3c b3 79 10 3e
       0.13488658 -0.15463169 0.010022854 0.14108925
000140 2f 44 f3 bd c7 8f 46 3d 7c 36 8c 3d 19 40 17 3d
       -0.11878239 0.04847696 0.068463296 0.036926363
000150 a4 e6 29 3e b6 2a 0a 3e dc 3f 11 3e 62 13 5a bc
       0.16591889 0.13492855 0.14184517 -0.013310285
000160 40 c5 0d 3e 66 9f 1e be bc 78 af bd 37 d0 e9 bc
       0.13844776 -0.15490493 -0.0856795 -0.028541667
000170 cd 46 30 bd 00 23 1d 3e 8c f3 96 3d 32 18 d5 3d
       -0.04303627 0.15345383 0.07370672 0.104050055
000180 b2 3e e2 3d a1 62 fa bd 78 27 42 bc e0 6c 8a 3c
       0.110471144 -0.12225843 -0.01185023 0.016897619
000190 b2 d2 15 3d 64 4e a6 3d 8a bf 78 bd 86 7c 33 bd
       0.036577888 0.081204206 -0.06072954 -0.043819927
0001a0 09 6a 0d 3e e4 bf 1b bd c8 75 e7 bd 03 76 e1 3d
       0.1380998 -0.038024798 -0.11301762 0.11008837
0001b0 31 24 e1 3d bf 1d 3c bd 6c 06 d6 bc 65 16 f7 bd
       0.10993231 -0.045926806 -0.026126109 -0.12064818
0001c0 c4 1d 0d be 14 04 69 3d da eb 86 bd ed 10 06 3e
       -0.13780886 0.056888655 -0.06587954 0.13092394
0001d0 9d e6 06 be e9 4a 7f bc 0a 40 a6 36 07 34 a6 3d
       -0.1317391 -0.015581825 4.9546406e-06 0.08115392
0001e0 72 75 08 3e b9 28 e1 3d 5a 9b 8b 3d ee 61 92 bd
       0.13326052 0.10994095 0.0681674 -0.07147585
0001f0 7e 82 ee bd b3 e0 17 be 8c c0 02 3b 28 7d 25 3e
       -0.11645983 -0.1483181 0.0019951193 0.16161025
000200 39 ec c7 bc 21 f5 9c ba 56 0b f3 bd 98 69 37 3d
       -0.024404632 -0.001197491 -0.118673965 0.044778436
000210 19 8b d1 3d 99 63 28 be ee e2 ea bd 07 1c f8 3d
       0.10231609 -0.16444243 -0.11469065 0.12114721
000220 ed 2d 05 3d 26 39 6c bb 6c 29 b8 3c 2b c7 92 bc
       0.0325145 -0.0036044805 0.022480689 -0.017917236
000230 c9 05 e9 bd ec 13 1f be 53 1d da 3d 17 92 4a bc
       -0.113780566 -0.15534943 0.106501244 -0.012363932
000240 5d a9 65 bd 19 69 14 bd 18 90 b1 bd 8f a6 2f bd
       -0.05606972 -0.03623304 -0.08670062 -0.042883452
000250 25 55 11 be 9f de fa 3d af 21 80 3d ea ba a2 bd
       -0.14192636 0.12249493 0.06256425 -0.07945807
000260 f5 09 50 bd 37 a6 8e 3d 1e e2 64 bd 78 65 18 3d
       -0.050790746 0.06965297 -0.055879705 0.037206143
000270 cd b9 20 3d dc eb cf bd 7e f9 0e 3d 6d f2 61 3b
       0.039239693 -0.101524085 0.034905903 0.0034476772
000280 0f 0a 14 3e b5 c7 5e bd ba a9 13 bd 9e e8 11 3e
       0.14456962 -0.054389674 -0.036050536 0.14248893
000290 f6 c5 09 be 9c db a3 3b e1 55 24 3e 57 8d 8e bd
       -0.13454422 0.0050005447 0.16048385 -0.06960552
0002a0 b8 76 23 3e 14 90 16 3e 9d 56 1e 3e 23 0a 0c bc
       0.15963256 0.14703399 0.15462728 -0.008547339
0002b0 8f b0 19 3e 5b fe 89 bd 6b c0 50 bd 37 96 6a 3d
       0.15008758 -0.067379676 -0.050964754 0.057272162
0002c0 52 13 e6 3c e6 ac b3 3d 8a f3 21 3e d8 a7 ce bd
       0.028085385 0.08773212 0.15815559 -0.100906074
0002d0 25 42 ac 3d ca 30 4b 3d 51 1e ab 3d fb da 97 3d
       0.084110536 0.049607076 0.08355392 0.07414814
0002e0 6f 97 67 bd 57 07 05 be 6c d7 06 3e 40 85 ba bd
       -0.056540903 -0.12991081 0.13168114 -0.09107447
0002f0 4f 79 d3 3d 24 5f 22 be aa 12 b0 bc 08 51 b2 34
       0.10325872 -0.15856606 -0.021493275 3.3214042e-07
000300 4e 1a b0 3c 6d b9 cd 3b 88 38 3d 3d 2e 1f 36 bc
       0.021496918 0.006278208 0.04619649 -0.011115832
000310 40 fb 0a 3d 72 0d 29 3e be 43 d6 bd 6b 00 2a bb
       0.033931017 0.16509035 -0.104621395 -0.002594019
000320 35 19 6d bd 4a c5 14 3e 3f e7 10 3e a2 b1 24 b9
       -0.057885367 0.14528385 0.14150713 -0.00015706432
000330 87 dc 53 bd b1 b8 cb bd 40 03 ef 3d 85 dd 93 bb
       -0.051723983 -0.099473365 0.11670542 -0.004512491
000340 92 69 20 3e ae 87 ba 3d ef 62 14 3e 98 21 05 3e
       0.15665272 0.0910791 0.14490865 0.13001096
000350 d0 45 d7 bd f5 27 2d 3d 06 68 82 bd b8 cd a1 3d
       -0.105113626 0.042274434 -0.06367497 0.07900566
000360 9f 99 fb bb 6c 8f ea 3b 40 5d e6 bd 9f b7 17 be
       -0.007678225 0.0071582105 -0.11248255 -0.1481614
000370 87 64 69 3d 8e 0f 02 3d 2b 0c ec 3b d4 e0 e1 3d
       0.056980636 0.031753115 0.007203599 0.11029211
000380 da 74 83 bd ca dc 59 3d 67 7d b3 bd 0e 56 e0 3c
       -0.06418772 0.053189076 -0.08764153 0.027384784
000390 d7 4d fe bc c4 83 e9 3d e4 3c 14 3e 10 29 13 3e
       -0.031042976 0.114020854 0.14476353 0.14371133
0003a0 6a f4 c2 3a de 8b c1 3d c7 c7 2a be 62 6d c0 bd
       0.0014873866 0.09450506 -0.16677772 -0.09395863
0003b0 cd 1c b8 3c df a5 90 36 d6 12 04 be 36 7a 8c bd
       0.02247467 4.3108444e-06 -0.1289781 -0.068592474
0003c0 e0 49 95 bd f5 43 29 be 4a e7 0b 3c 0c c8 e2 3d
       -0.07289481 -0.1652983 0.00853903 0.11073312
0003d0 46 7a 7e 3d a4 33 98 bd 99 27 1c be 3f ff 07 be
       0.062128328 -0.07431725 -0.1524948 -0.13280962
0003e0 3d 9d b8 b7 63 07 e5 3d 12 d6 7d bd fa 19 b1 bd
       -2.2007729e-05 0.111830495 -0.06197173 -0.08647533
0003f0 5b 3e ad bd db 8d ea bb cb d4 21 be 72 ad 15 be
       -0.08459159 -0.007158024 -0.1580383 -0.14616945

linOSS_layers.0.D.bias f4 [32]
000000 f0 95 47 bb ec 10 ce bd 45 ab 11 be 19 97 15 3c
       -0.003045436 -0.10061821 -0.1422549 0.009130263
000010 a3 b5 9b bd 55 a6 f1 3d d3 42 04 be 12 33 0c 3e
       -0.07603004 0.117993034 -0.12916116 0.13691357
000020 94 75 c6 3d a4 7c 14 3e cc 3f 2d bd 92 f2 c9 bd
       0.09690395 0.14500672 -0.04229717 -0.0986072
000030 14 85 dc bd b0 7a 0c 3e 75 39 a0 bd d2 f0 55 bc
       -0.1076757 0.13718677 -0.07823459 -0.013057904
000040 3a b1 95 bc 10 b8 ae 3c 01 7e 0a be 00 eb 07 3e
       -0.018272985 0.021328002 -0.13524629 0.13273239
000050 d8 d4 f7 bd 7e f6 27 3e f4 fa 73 bd d3 d9 8d bd
       -0.121011436 0.16402623 -0.0595655 -0.06926312
000060 db 29 7d bc de 7c 2f 3d 3b 5a c1 bc 52 95 2a be
       -0.015451874 0.042843692 -0.023602596 -0.16658524
000070 98 9e ea 3d 49 37 29 3e 14 ce a2 3d 74 0d 27 3e
       0.114560306 0.16524996 0.079494625 0.16313726

linOSS_layers.0.B.weight f4 [32, 32]
000000 73 97 94 3d fd 7f 27 3d 1e fd 04 3d e0 e6 4f 37
       0.07255449 0.040893544 0.032467954 1.2391916e-05
000010 e5 af bb 3d 70 86 f0 bc f8 2a c1 bd 45 30 6d 3d
       0.091644086 -0.02936098 -0.09432024 0.05790736
000020 19 9d 1a 3d ad 65 6c 3d a0 63 35 bc a6 1b 70 bc
       0.037747476 0.057714153 -0.011071116 -0.014655029
000030 ef 03 c7 bb 77 63 18 3d 24 df 00 be 32 a6 1e be
       -0.006073467 0.037204232 -0.12585121 -0.15493086
000040 b1 ae 67 3d 63 50 b2 bd a2 30 de bb 7a 13 22 3d
       0.056563083 -0.08706739 -0.0067807 0.039569356
000050 b9 73 82 3c b4 66 d5 3d ab a9 6b 3c f8 e2 0c 3d
       0.015924321 0.1041998 0.014383714 0.03439614
000060 56 8e f9 bb 70 9f 8c 3c c1 45 62 3d 33 f8 e2 3d
       -0.0076158447 0.01716587 0.055242304 0.110824965
000070 96 71 21 be 9c 17 83 bd df 5e 18 be b8 50 79 bd
       -0.15765986 -0.064009875 -0.1487994 -0.060867995
000080 79 ba c8 3d 1e 71 21 be c0 21 18 be 80 b1 bd 3d
       0.09801192 -0.15765807 -0.14856625 0.09262371
000090 e5 d9 c1 bd 5b 8d f4 3d 86 b2 3a 3d 93 57 0f 3d
       -0.09465388 0.11941024 0.04558041 0.034995627
0000a0 0a c3 05 3e 56 9b 1d be 9c 11 f5 3d 5c d1 43 3d
       0.13062683 -0.15391287 0.11966249 0.047807083
0000b0 72 98 de bd 8e d8 09 3d f6 20 23 bd b5 41 7b bd
       -0.108689204 0.03365379 -0.039826356 -0.06134196
0000c0 df fd 2d bc 12 e1 96 bd c4 3a 14 3e 07 bf 11 3e
       -0.01061961 -0.073671475 0.14475542 0.14233027
0000d0 58 a9 29 bc f8 75 16 be dc de 61 bb b7 ee 86 3b
       -0.010355316 -0.14693439 -0.003446511 0.0041178125
0000e0 3c fc dd 3d 8c 3d d4 39 34 f8 2b 3d d9 91 19 3d
       0.108391255 0.00040481647 0.04198475 0.037492607
0000f0 44 7f b9 bd 85 98 cc bd af b9 17 be 57 ee c9 b6
       -0.09057477 -0.09990028 -0.14816926 -6.018013e-06
000100 fe 5c 39 3d e1 6a 9e bb 8b a1 25 3e 98 14 c9 bc
       0.0452547 -0.0048345183 0.16174905 -0.024545953
000110 21 3e d8 bd e6 30 a7 3c 79 36 25 bd cd 29 7c bc
       -0.10558725 0.020409059 -0.040335152 -0.015390825
000120 17 52 25 3e 64 89 64 b9 5d 11 14 3e ca 6a 72 3c
       0.16144596 -0.00021794956 0.14459749 0.014795968
000130 38 1e 66 bd 8e 61 f5 3d 25 4d ba bd 6c 6b f2 39
       -0.056181163 0.11981498 -0.090967454 0.00046237872
000140 49 4a f9 3c 5c b8 8e 3d 0d f3 1c be dc 43 fd 3a
       0.03043093 0.069687575 -0.15327092 0.0019322592
000150 3a fc 14 bd 50 bd d6 3d 5f 8a 4c 3d 47 d4 7a 3d
       -0.036373354 0.10485327 0.04993665 0.0612376
000160 3b b9 c5 3d 2d 05 f8 bc a1 a9 7b bb e7 2d 07 3e
       0.096544705 -0.030275906 -0.0038400667 0.13201104
000170 c9 da 07 be 44 39 e6 bd 1f 32 a8 3b 9e 77 77 bd
       -0.13267054 -0.11241391 0.005132928 -0.06041681
000180 4f 34 40 3b d1 d7 15 3e 55 6e 42 bc a0 49 10 be
       0.0029328053 0.14633109 -0.0118671255 -0.14090586
000190 5e ca 90 bd 4e 2c 1c 3e e1 0f f2 bc dc fc 8a bd
       -0.070698485 0.15251276 -0.029548587 -0.0678651
0001a0 9a 2f 8f 3d 8b c2 57 3c 0a 8a 15 be fb b2 0c 3e
       0.06991501 0.013168941 -0.14603439 0.1374015
0001b0 00 f4 b7 3d b1 47 13 3e c8 ab 8a 3d f4 0c 4d bd
       0.08982086 0.14382817 0.06771046 -0.05006118
0001c0 72 5c 45 bd c2 9f 9b 3d 5e 72 cd bc 46 8e d0 3c
       -0.048183866 0.07598831 -0.025078949 0.025458466
0001d0 dc 53 25 be 78 1f 9f bd 7c b4 65 3d d5 73 00 bb
       -0.16145271 -0.07769674 0.056080326 -0.0019600291
0001e0 4a 3a 9a bd 5f d6 13 be e4 1c d2 3d 0e a3 d7 bc
       -0.07530649 -0.14437245 0.10259417 -0.026322868
0001f0 f7 c6 27 be 3d 91 24 3e d9 58 9c 3d b2 98 c4 bd
       -0.16384493 0.16071029 0.07634134 -0.09599437
000200 9c 2d f4 bd 00 d8 24 3e a3 49 05 36 42 c8 c5 bd
       -0.11922762 0.16098022 1.9861407e-06 -0.09657337
000210 e9 66 bc 3d ea e4 e1 bc 81 2e 92 3b 66 b9 a8 bd
       0.09199316 -0.027574975 0.00446111 -0.08238487
000220 95 44 0f be a7 6e dc bd ec fe 31 bc 38 0d f2 bd
       -0.13991006 -0.10763293 -0.010864001 -0.118189275
000230 5f 55 28 3e 5a 57 0c b5 77 e5 6d bd 5b d0 76 3d
       0.16438816 -5.228118e-07 -0.058080163 0.060257297
000240 56 6c 16 be 40 51 a5 bd 76 b1 68 3d 11 c0 0f be
       -0.14689764 -0.08072138 0.056809865 -0.14038111
000250 4e 98 a0 3d 8e d9 dd 3b 37 e2 0c be 4a 91 29 be
       0.0784155 0.0067703193 -0.13758169 -0.1655933
000260 ff e5 3d 3d 21 50 97 3d 78 01 d6 bc 42 01 16 be
       0.04636192 0.0738833 -0.026123747 -0.14648917
000270 13 ba bc bd f8 9c 28 3c 05 e5 36 3a 24 e2 12 3d
       -0.09215178 0.0102913305 0.00069768756 0.035860196
000280 b8 6f b5 3c 36 7b 18 bb f5 2c ab 3d 55 83 25 3e
       0.022147998 -0.0023266799 0.08358184 0.1616338
000290 3c b4 0c 3e b6 6b 1a 3e 33 4d 4d bd 3e 0a 50 bd
       0.13740629 0.15080151 -0.05012245 -0.050791018
0002a0 a6 21 34 bc 00 34 2f 3d 50 b2 7d 3d 3c a3 f7 bb
       -0.010994351 0.0427742 0.06193763 -0.007557301
0002b0 9c db d5 bd 53 18 fd bd 98 31 24 3e 32 16 1c bd
       -0.10442278 -0.12358155 0.16034544 -0.038107105
0002c0 cd e0 76 bc cf e9 c9 bd 39 a4 9f bd c6 fd f1 3c
       -0.015068245 -0.098590486 -0.07794995 0.029539954
0002d0 f2 c1 84 3d 62 e3 76 bd e6 46 63 bd c5 5a 05 3e
       0.06482305 -0.060275443 -0.055487536 0.13022907
0002e0 d0 96 a6 bd 9e 0d fa bd 3b 4f 98 bc 3c 2c 22 3e
       -0.08134234 -0.122096285 -0.018592468 0.15837187
0002f0 eb 13 ef 3c 54 26 7f 3c b6 b5 59 bc 14 42 ce 3d
       0.029184302 0.015573103 -0.013287952 0.10071197
000300 25 9a 9f bd 56 73 e1 3d 07 cf 04 3d 76 b0 35 3c
       -0.077930726 0.11008327 0.032424 0.011089435
000310 b8 c0 7d 3c 31 4f cb bd 00 d5 f8 3d 48 44 aa 3d
       0.015487842 -0.09927214 0.121500015 0.08313805
000320 14 8a 03 be f5 78 1e be ad eb 13 bd e3 83 dc 3d
       -0.12845641 -0.15475829 -0.03611343 0.10767343
000330 a3 67 9e bd 6b b4 1d 3e 2d 2c a2 bd f3 72 19 be
       -0.07734611 0.15400855 -0.07918582 -0.14985256
000340 e2 7e 8b 3d 64 d6 c6 bd 56 92 9a bc 53 ec 3a bd
       0.0681131 -0.097088605 -0.018868607 -0.045635533
000350 e7 ea c6 bb f8 ac 13 be 5b f6 1b be 6b e3 87 3d
       -0.006070483 -0.14421451 -0.15230696 0.066351734
000360 0b 69 3b bc 6c 6f c6 bd b4 ee c3 b8 7c 27 1b be
       -0.011438618 -0.09689221 -9.3427865e-05 -0.15151781
000370 73 a5 19 3d 68 1e 98 3d 35 7a 25 3e a8 6c 09 be
       0.0375113 0.074276745 0.161599 -0.13420355
000380 1c dc 50 bc f9 93 b0 3d 15 d4 1b 3e ec 8a ed bd
       -0.012747791 0.086219735 0.15217622 -0.11598763
000390 28 1e 86 3d 8a c2 81 3d 30 4e c6 3d 63 92 e5 bd
       0.065487206 0.063359335 0.09682882 -0.11209562
0003a0 5a 51 ee 3d fd ef 89 bd 66 e2 ca bd c2 18 d4 3c
       0.1163661 -0.06735227 -0.09906463 0.025890712
0003b0 52 4b 0f 3e cc be db bd 11 68 ad 3d 35 aa 3e bc
       0.13993576 -0.10729751 0.08467115 -0.01163726
0003c0 71 2f 40 3d 5e 2b 03 3e fb fd 1d 3d 43 39 0c be
       0.046920244 0.12809512 0.038572293 -0.13693719
0003d0 58 28 33 bd c8 fb d3 3c 04 a7 0e be 09 9b a6 3c
       -0.043739647 0.025876895 -0.13930899 0.020337598
0003e0 e5 82 ae bd 74 68 d4 bc c8 d8 5b 3d aa a4 07 be
       -0.0852106 -0.025928713 0.053673536 -0.13246408
0003f0 d6 71 d4 bd 3d 57 91 3d 44 f4 28 be cf 20 e5 3d
       -0.10373275 0.070967175 -0.1649943 0.11187898

linOSS_layers.0.B.bias f4 [32]
000000 9d ac c2 3d bb f7 13 be 44 0a cf b9 03 56 19 be
       0.095055796 -0.1444997 -0.00039489765 -0.14974217
000010 7f 3e 00 3e e5 5d be bc 69 ed c5 b6 3a 77 ca bd
       0.1252384 -0.023238132 -5.8986957e-06 -0.09886022
000020 de f5 b0 bd 18 18 68 3c e8 4d 0b 3e d7 20 a2 bd
       -0.086406454 0.014165901 0.13603938 -0.0791642
000030 ff 9f 09 3c 1d cb 19 3e cb 2a 18 3e 1e c8 cf bc
       0.008399962 0.15018888 0.14860074 -0.025363978
000040 0c 97 1f 3e 21 78 60 3d 4f cc 1a 3e ed f3 8a 39
       0.15584964 0.054802064 0.15117 0.0002650315
000050 bb 5b 0f be 2b 7b 1e bd 1f 56 32 3d 80 2d ad 3d
       -0.13999836 -0.03869168 0.043539163 0.08455944
000060 1d 40 2a be 98 c4 02 3e b8 52 18 be 1a 2f c0 3d
       -0.1662602 0.12770307 -0.14875305 0.09383984
000070 54 86 28 3e 95 12 0c 3d 9a 36 c6 bc f8 6e b3 3d
       0.16457492 0.03419741 -0.024195958 0.087614

linOSS_layers.1.C.weight f4 [32, 32]
000000 26 18 30 bd 55 1e f8 bd d3 e5 ec bd 99 6a 96 3d
       -0.04299178 -0.121151604 -0.11567273 0.07344551
000010 f9 36 00 3e 45 2a 89 3a b7 6f 25 be 70 ca 27 be
       0.1252097 0.0010464868 -0.16155897 -0.16385818
000020 8f c2 fa bc 48 8a af 3d da 40 dd bd 92 93 1c 3d
       -0.03061035 0.08571297 -0.10803385 0.03822667
000030 11 fa b1 bd af 3b 09 3e 4f 35 17 bd 49 09 e2 bc
       -0.086902745 0.13401674 -0.036916073 -0.027592318
000040 23 b5 14 be a2 12 18 be 9b e9 8d 3b b4 3a a0 3c
       -0.14522223 -0.14850858 0.0043308265 0.019559242
000050 a5 b3 af 3d 6a 3a 14 be 38 30 b3 3c fc 41 88 bc
       0.08579186 -0.14475408 0.021873578 -0.016633026
000060 86 6d c0 3d 49 d5 90 bd 76 e6 30 3d cd 64 7c 3d
       0.0939589 -0.07071931 0.043188535 0.06161957
000070 b9 03 a2 3d 40 3e 51 bd 54 08 42 3d 8b 74 d0 bc
       0.07910866 -0.051084757 0.047371224 -0.025446197
000080 bc 63 1c 3d b3 a6 ca bd 27 cc 05 be 04 06 0a be
       0.03818105 -0.098950766 -0.13066159 -0.13478857
000090 cc 9b cf bd 2f 7e 85 bd a8 58 8e 3c 8a b5 f0 bc
       -0.10137138 -0.06518208 0.017376259 -0.02938344
0000a0 85 2c ba bd fd 2d bd 36 58 b7 3d bd ef 33 cb 3d
       -0.09090523 5.6379927e-06 -0.04631743 0.09922015
0000b0 10 0a 0b be bf 05 64 bd 09 ab d4 bd 3d a8 56 3c
       -0.13578057 -0.055669542 -0.10384185 0.013101635
0000c0 bd aa 29 3b 07 5c 42 bb 5c 86 29 3e 24 ed 6c bd
       0.0025889121 -0.0029656903 0.1655516 -0.057843342
0000d0 3b 3f 87 bc 65 95 14 3d 78 07 0d 3e fe 59 fe 3d
       -0.016509643 0.036275286 0.1377238 0.124195084
0000e0 5e e4 3d 3c 8c a7 6a bd 2d d9 46 3d 71 cf cf 3d
       0.0115900915 -0.05728869 0.04854696 0.10146988
0000f0 48 71 c1 b5 b8 dd b2 3d 24 1a 0a 3e f9 13 ae bd
       -1.441259e-06 0.08733696 0.13486534 -0.08499903
000100 68 08 f4 bc ad e8 18 be 7d 0b 00 3d a3 fb ed 3d
       -0.029789165 -0.14932509 0.031260956 0.116202615
000110 66 ec cd bc ed 43 9d 3c f4 65 40 3d ba 9c ab b5
       -0.025137138 0.019197429 0.04697223 -1.2786106e-06
000120 ae b1 02 3e 55 01 8a 3c 16 da 27 be fe 6e 0b be
       0.12763092 0.016846338 -0.16391787 -0.13616559
000130 1c 44 29 be 4e f5 91 3a 6b cf af 3d 20 fc 6d bc
       -0.16529888 0.0011135729 0.08584484 -0.014525443
000140 07 b1 18 3e bb c5 b9 bc 8e 70 dc 3c a4 2a 19 3e
       0.1491128 -0.022677293 0.026909139 0.14957672
000150 6f 5e a3 3d d2 9f cb b9 f3 48 24 3e 52 5a c4 bd
       0.07976996 -0.00038838253 0.16043453 -0.0958754
000160 cb 71 66 3d dc a8 d0 3d 43 33 cc bd 68 f7 1f be
       0.056260865 0.10188457 -0.09970715 -0.15621722
000170 43 a2 40 3d 31 6b 6b bd 7f d8 a2 bd dd 96 d4 3c
       0.047029745 -0.057475273 -0.079514496 0.025950843
000180 3a 96 f2 bd 80 be 18 3e cd dc fa bb f4 e9 40 bd
       -0.1184506 0.1491642 -0.007655716 -0.047098115
000190 da 46 0d 3e ae f1 22 3d c3 bd c8 3c 73 48 99 bd
       0.13796559 0.039781265 0.024504548 -0.07484522
0001a0 1c 73 22 3e 72 a9 35 bd 12 82 0c 3e 8d e4 a9 bb
       0.15864223 -0.04435105 0.13721493 -0.005184716
0001b0 0b c3 a1 3d 77 86 ea 3d 31 7b f9 bd d7 4a dd bd
       0.078985296 0.114514284 -0.121817 -0.1080529
0001c0 a3 eb 28 be ca 14 f1 3d dd 9d 11 3e a2 67 61 bd
       -0.16496138 0.11771543 0.14220376 -0.055030473
0001d0 f0 7b 9d bd e8 33 a8 3c 32 05 af 3d db 5b 0c 3d
       -0.07689655 0.020532563 0.08545913 0.034267288
0001e0 23 0d e2 bc 86 4c d2 bd 87 c3 10 3e b1 77 d6 bd
       -0.027594155 -0.10268502 0.14137088 -0.10472048
0001f0 5d d7 24 be 44 bb 79 bd f1 4c d5 3c 44 e1 65 3d
       -0.1609778 -0.060969606 0.026037665 0.056123033
000200 2c a8 70 3d f6 ca bd bd 02 96 6e bd 05 39 8d bd
       0.05875413 -0.09267227 -0.058248527 -0.06895641
000210 47 7e 9b bd 0d 6a 0e be eb ca dc 3c 48 ce 2b bd
       -0.07592445 -0.13907643 0.026952228 -0.041944772
000220 c1 27 24 be e5 75 bf bd 3d 77 c5 bd 86 6c 88 bd
       -0.1603079 -0.093486585 -0.096418835 -0.06661324
000230 34 bc cb bd 84 a8 b0 bc 49 4b 5c 3d ab 74 08 be
       -0.09948006 -0.02156473 0.053782735 -0.13325755
000240 db f8 e5 bb 14 a3 29 bd a5 3b a5 bd 19 6a f5 bc
       -0.0070181913 -0.04141529 -0.08068017 -0.029957818
000250 d3 b5 85 bd 6e 65 d3 39 26 4b f1 bd 84 7e c7 3c
       -0.06528821 0.00040320627 -0.117819116 0.02435232
000260 73 21 1c 3e bb f1 0b 3e 86 8c 8e bd 55 49 38 3d
       0.15247135 0.13666432 -0.069603965 0.04499181
000270 b2 06 21 be cc 5a 0e 3e 9f 50 2a be 06 b3 17 be
       -0.1572521 0.13901824 -0.16632317 -0.14814386
000280 56 6c 18 be 8e 08 1e be 95 98 77 3c b0 ec 18 bd
       -0.14885077 -0.15432951 0.015112062 -0.037335098
000290 18 05 07 3d 2b 09 68 bb e5 4a 62 b6 8b 64 5e bd
       0.032963842 -0.0035405855 -3.3720219e-06 -0.054295104
0002a0 d7 d8 c2 bd d4 81 0d be 29 d3 a2 3d 9e cc a6 bd
       -0.09514015 -0.13819057 0.07950432 -0.081444964
0002b0 fd eb da bc c9 02 9c 3d c8 f2 0c bd e6 23 10 bd
       -0.026723856 0.07617719 -0.03441122 -0.035190485
0002c0 05 58 dd bd ec d2 10 be f2 f1 99 3d 9a 7d fa bc
       -0.10807804 -0.1414296 0.075168505 -0.03057747
0002d0 3c ac cf 3d 07 c5 85 3b 7c 9e f9 34 bc 5b 19 be
       0.10140273 0.0040823254 4.6495177e-07 -0.149764
0002e0 e6 ae 51 37 7e 07 fb bc 17 aa ba bd de 62 01 bd
       1.24980925e-05 -0.030643221 -0.09114473 -0.031588428
0002f0 08 65 17 3b 31 ba fc bd 2e a7 a6 3c 5f e2 e7 3d
       0.002310099 -0.12340201 0.02034339 0.11322474
000300 06 ab d2 3c 8b b7 22 3e db 23 95 3d 54 b8 04 be
       0.025716316 0.15890329 0.072822295 -0.1296094
000310 5b a8 75 bd 70 f1 07 bd 87 c5 31 3d 58 5c 5c b9
       -0.05997501 -0.033189237 0.043401267 -0.00021015236
000320 f8 9e 07 3e d2 15 43 3c e6 4c d1 bd b3 3a 62 bd
       0.13244236 0.011907058 -0.10219745 -0.05523176
000330 c3 8c 0c be dd 00 21 bd 55 29 9e 3d 11 8d 5f 36
       -0.13725571 -0.039307464 0.07722727 3.33117e-06
000340 a3 8b 22 be c1 93 12 be 62 4d 5f 3d ef d1 14 be
       -0.1587358 -0.14314176 0.054517157 -0.14533208
000350 79 57 06 be cd e6 c3 bd 21 75 22 3e b1 2b 27 bd
       -0.13119306 -0.09565506 0.15864994 -0.04081315
000360 a7 8e 81 bd 81 70 e0 bd 79 9c d3 3d 20 eb 9f bc
       -0.06326037 -0.109589584 0.10332579 -0.019521296
000370 d3 01 cc 3c 9c b1 06 3d 9e 82 25 3d ba bf d3 3d
       0.024903214 0.032884225 0.04040777 0.10339303
000380 34 5d 14 3b 29 11 21 3c 09 c6 81 bb 62 a0 02 be
       0.0022638561 0.009830751 -0.003960375 -0.12756494
000390 20 16 ff bc f5 35 22 3e 88 8c ec bd 4e 81 d0 bd
       -0.03113848 0.15840895 -0.11550242 -0.10180913
0003a0 d0 8b 29 be 1c 27 5d 3b 3a 3d 1f be 13 92 a5 bd
       -0.1655724 0.0033745235 -0.155507 -0.08084502
0003b0 a2 ba 1c 3e 7b 3a 82 3d 0d ff ac 3d 5a 96 ad 3c
       0.1530557 0.063588105 0.084470846 0.021189857
0003c0 79 c5 0f be ca a9 94 bd fc 7f 08 be 3d e6 cb bd
       -0.14040174 -0.07258947 -0.13330072 -0.09956024
0003d0 81 7c 4f 3d 76 2a 22 bd fb d2 26 3e b7 dc f3 bd
       0.050655846 -0.039591275 0.1629142 -0.119073324
0003e0 87 6d 10 be 6d a8 28 3e 09 51 12 be c7 fa 0f 3e
       -0.14104281 0.164705 -0.14288725 0.14060508
0003f0 74 63 1c 3d 2d ec 1a be be 9a 13 3e 8f 82 1e bd
       0.038180783 -0.15129156 0.14414498 -0.03869873

linOSS_layers.1.C.bias f4 [32]
000000 eb 05 d1 3c 57 f7 a2 bd f8 68 b2 3c 4e 84 1c 3e
       0.025515517 -0.079573326 0.021778569 0.15284845
000010 8d 5b a4 3c 48 90 9f bd 3f f7 ff 39 7d f8 1b be
       0.020063186 -0.07791191 0.00048821603 -0.1523151
000020 22 4b d4 bd 6d 01 c2 bc 74 a1 cd bd 43 3c 0f 3e
       -0.10365893 -0.02368232 -0.1004056 0.13987832
000030 27 cf cd 3c 8d 2b 02 3e 18 77 fd bc 7b d1 80 bc
       0.025123192 0.12711926 -0.030940577 -0.015724888
000040 1e 38 10 3d b4 7a 30 bd f2 b8 4f bd d8 7e 27 be
       0.035209768 -0.04308577 -0.050713487 -0.16356981
000050 a3 ad fc 3d e2 c2 19 3e 58 26 29 be 58 87 48 bd
       0.12337806 0.15015748 -0.16518533 -0.0489572
000060 fa c6 fd bd b9 85 7e bd a9 8e ff 3d ae c5 ad 3d
       -0.123914674 -0.062139247 0.12478382 0.0848497
000070 1d b9 bd bb 80 e3 86 3d 74 69 31 3d 41 d0 b1 3d
       -0.0057898895 0.06586361 0.04331346 0.086822994

linOSS_layers.1.D.weight f4 [32, 32]
000000 3a 6c 07 be ba ea 38 3d 2f 5e 21 be 65 19 da bd
       -0.13224879 0.045145728 -0.15758584 -0.10649375
000010 b0 92 66 bd 0c 45 11 bc 5d c1 20 be 51 ea 9e 38
       -0.056292236 -0.00886656 -0.15698762 7.577672e-05
000020 3b 63 9d 3c b0 ff 77 bd 93 db 43 3d 63 1e 14 3e
       0.019212356 -0.060546577 0.047816824 0.14464717
000030 c2 00 ad bc 39 ed ac bd 11 4a 16 be fe 4f f4 bd
       -0.021118525 -0.08443684 -0.14676692 -0.1192932
000040 59 54 b4 bd 67 97 f7 bd de 52 75 bd d0 88 b3 3d
       -0.088051505 -0.120894246 -0.05989348 0.08766329
000050 55 a7 3b 3d 5b 17 19 3e 7c a4 29 3e 53 8c 5d bd
       0.045813877 0.14950316 0.16566652 -0.0540889
000060 a9 38 74 bd 8e 7d 7b 3c 90 19 06 be 16 05 b1 3d
       -0.059624348 0.015349759 -0.13095689 0.08643548
000070 bc e0 b9 bc 37 85 0d be e5 44 fd bd 35 72 e5 bd
       -0.02269017 -0.13820349 -0.12366656 -0.11203424
000080 2a 60 20 3d a9 ba 00 3e 18 5f 05 3e 41 bc 20 bd
       0.03915421 0.12571205 0.13024557 -0.039242033
000090 f2 5a be bd 17 eb 8c bd e5 4b e3 bd 6f 33 14 bd
       -0.0929469 -0.06880777 -0.1109846 -0.036181863
0000a0 88 6b 19 be 8b 9e ad 3d 1d 4d 20 be fd 3b cd bd
       -0.14982426 0.08477505 -0.15654416 -0.100212075
0000b0 14 f4 de 3d a9 bf fa bd 7f d1 06 3d 97 1d fb 3d
       0.10886398 -0.122435875 0.032914635 0.12261503
0000c0 3b 5a 28 3e fe 54 a3 3d 85 bc 1b bd 21 f4 ba 3d
       0.1644067 0.07975195 -0.038021583 0.09128595
0000d0 cf 8f ef b9 e3 5d 38 bd 00 34 31 35 fd a0 f8 3c
       -0.00045692778 -0.045011412 6.601331e-07 0.030350203
0000e0 65 be de 3d cd 3e 84 3d 4c 0d 99 3d 9f 61 8f 3c
       0.108761586 0.06457291 0.07473239 0.017502604
0000f0 5b 45 08 bb 04 4b 84 3d 70 db 07 3d c1 23 23 be
       -0.0020793292 0.064596206 0.033168256 -0.15931608
000100 01 35 a0 3c cc 02 8d bd 82 1a ac bd c9 b3 70 3d
       0.019556524 -0.06885299 -0.084034935 0.058765206
000110 73 7e dc 3c 9a f0 aa 3c 78 ee 97 bd 34 7e 93 3d
       0.026915764 0.02086668 -0.07418531 0.07201806
000120 3e cd 1f 3e d7 ca 53 3c 19 19 81 3d 96 c0 14 be
       0.15605637 0.012926779 0.06303615 -0.1452659
000130 d2 47 c3 3d 83 67 54 3d a7 54 8f 3d 08 41 83 3d
       0.09535183 0.05185653 0.06998568 0.06408888
000140 0d eb 17 bd fe ce 57 bb 33 04 25 3e d9 dd f4 3d
       -0.037089396 -0.0032929773 0.16114883 0.119563766
000150 d3 76 ef bd 4a 95 05 3e e6 12 2a 3e e5 d5 6c 3c
       -0.11692586 0.1304523 0.16608772 0.014455293
000160 8b 30 03 be 97 6d cd 3c f4 e9 d8 bc 3a 42 f0 3d
       -0.12811486 0.02507667 -0.026478745 0.11731382
000170 07 d8 23 be bd d4 12 3d 0d 50 94 36 5a 48 c3 3b
       -0.16000377 0.035847414 4.420063e-06 0.0059595527
000180 69 05 e5 3d 86 cf c4 b7 be b0 07 be 4c 40 bf bd
       0.111826725 -2.3461656e-05 -0.13251016 -0.093384355
000190 d3 8b 7a bd bb 96 29 3c cc 1a 70 3d 77 49 c3 bc
       -0.061168503 0.010350878 0.058619305 -0.023838742
0001a0 6c 6c 76 bd 26 1b 8b 3d 8f ed 25 be cb f4 e8 3d
       -0.060161993 0.067922875 -0.16203903 0.113748156
0001b0 b2 4d 43 bc b2 e3 e7 3d 72 7f fd 3d f5 0e 2a 3c
       -0.0119203795 0.11322726 0.12377824 0.010379543
0001c0 d1 18 3e 3d 5f d9 b8 bd ab 5a ef 3d 4c f5 bf 3d
       0.046410386 -0.09025835 0.116872154 0.093729585
0001d0 75 c3 99 bc 39 e5 72 3d 26 ab 35 bb cb 63 03 3e
       -0.018769959 0.059300635 -0.002772042 0.12831037
0001e0 29 52 81 3d 07 e5 f3 3d bc 79 1a be 03 4b 26 3e
       0.06314499 0.11908918 -0.150855 0.16239552
0001f0 4a 85 66 3d cb 2f 9c 3d 55 86 f6 3c 22 c8 d9 3d
       0.056279458 0.07626303 0.030093351 0.106338754
000200 98 57 20 3e 0c 93 e3 bb 45 7b 0a be 83 27 1c 3e
       0.15658414 -0.0069450196 -0.13523586 0.15249448
000210 1b 92 e5 bc 22 c7 9a bd cd e5 ca 3d a2 21 b6 3d
       -0.02802377 -0.07557513 0.09907112 0.08893134
000220 88 57 73 3c 0f 05 70 bb 2d d7 c9 bc dc e8 1b 3e
       0.014852412 -0.003662411 -0.024638737 0.15225548
000230 36 9f c8 3d 05 a8 c3 3d dc e0 d2 3d 7a 99 a9 bd
       0.09795992 0.095535316 0.10296795 -0.082812265
000240 fc 98 e2 3c 1d 8a 12 be 5b 66 be 3d 95 58 29 be
       0.02766084 -0.14310499 0.092968665 -0.16537698
000250 16 d4 2a be 68 da 28 be dc 49 cb 3d 9a bd 22 3c
       -0.16682467 -0.16489565 0.09926197 0.0099329
000260 4d b2 79 b4 36 8c 9c 3c 81 be 6a bd 48 03 35 bd
       -2.3254798e-07 0.019109827 -0.057310585 -0.044192582
000270 92 da df bd c3 7d 0a bd c7 ce ca bd 31 44 fe 38
       -0.10930361 -0.033811342 -0.09902721 0.000121243655
000280 26 30 04 3e ef 98 0b be ea 33 9e 3d 05 3a f9 bd
       0.12908992 -0.13632558 0.077247456 -0.121692695
000290 23 49 82 bd 04 d6 cf 3c a6 c2 ae 3c b7 66 0a 3e
       -0.06361606 0.025370605 0.02133305 0.13515745
0002a0 03 41 4e 34 c8 7b 6c bd 77 03 82 bd d6 cf 81 39
       1.9208896e-07 -0.057735234 -0.06348317 0.00024759647
0002b0 0f 68 fb bd e4 e3 03 be b3 29 87 bd 0e 35 d2 38
       -0.12275707 -0.12879902 -0.0659975 0.000100234625
0002c0 5e 7c e0 bd 78 bc ba bd 66 74 ee 3d 9f 36 1d 3e
       -0.10961221 -0.09117979 0.11643295 0.15352868
0002d0 d8 e0 3b bd 10 3f 11 be 78 e9 6d bd 6a d9 7c 3d
       -0.045868725 -0.14184213 -0.05808398 0.06173078
0002e0 c3 fe 43 3d 9c 8e 39 bd 97 5d 15 be 29 e1 32 bd
       0.04785038 -0.04530202 -0.14586483 -0.04367176
0002f0 f7 9c f7 bc 5c 8d bc 3d 64 ae 9f bd 01 54 c5 3d
       -0.030226214 0.0920665 -0.07796934 0.09635163
000300 90 53 80 3c 7f 7e a8 bc d3 41 17 be 2b a2 28 3e
       0.015664846 -0.02056813 -0.14771204 0.16468112
000310 78 8a b7 bc a8 d0 cf 3d d2 66 a7 bd 0e 34 26 be
       -0.022404894 0.1014722 -0.08173908 -0.16230795
000320 80 3f 06 be f9 ac a5 bd 24 a2 3f bd fc c4 83 bc
       -0.13110161 -0.080896325 -0.04678549 -0.01608514
000330 cd eb 0c 3e 7c e0 1c be 3d da a0 3d f5 42 0e 3e
       0.13761826 -0.15320009 0.07854126 0.1389273
000340 cb f6 b6 36 ca ce cd bd ba 30 ce 39 72 84 05 3d
       5.452753e-06 -0.100492075 0.00039327686 0.032597013
000350 4c 6c 8c 3d 6b 3b 35 bd be 5f 51 bd 4c fd 96 bd
       0.068565935 -0.04424612 -0.051116697 -0.07372531
000360 bb 01 25 be 95 26 57 3d 81 a4 fd bd 12 1a 9a bd
       -0.16113941 0.05252703 -0.12384892 -0.07524504
000370 4e fa be b5 33 83 01 3e 32 e3 16 3e 00 49 f3 bd
       -1.4228951e-06 0.12647705 0.14735106 -0.11879158
000380 d3 ef 12 3e c6 16 18 3e 44 30 08 3e 82 0f ed 3b
       0.14349298 0.14852437 0.13299662 0.0072345147
000390 35 57 07 3e 9b 12 9c 3d 25 be ef bd f9 f0 aa bd
       0.1321686 0.07620736 -0.11706189 -0.08346743
0003a0 80 c1 af b7 91 88 ec bd 84 65 47 bd 7a e6 07 3e
       -2.0951731e-05 -0.115494855 -0.048680797 0.13271514
0003b0 c7 c1 94 3d 1d 96 13 3e 1f 7f cb 36 40 be a4 bd
       0.072635226 0.14412732 6.0646703e-06 -0.080441
0003c0 40 9c db 3d b1 eb aa 3b 70 9f a9 3c 8a a9 85 bd
       0.10723162 0.005216085 0.020705909 -0.06526478
0003d0 8e 01 81 3d 08 54 f7 bd f8 67 06 3e 91 4d 14 3e
       0.06299125 -0.120765746 0.13125598 0.14482714
0003e0 fd 0f 5e 3d 29 ed 02 3e ff c8 c7 3d 05 3d 6d bd
       0.054214466 0.12785782 0.09755134 -0.05791952
0003f0 f8 f1 12 be 3d 0d 6d 3c 55 56 cf 3d c5 10 1e bc
       -0.14350116 0.014468488 0.101238884 -0.009647553

linOSS_layers.1.D.bias f4 [32]
000000 22 2e 23 be f0 82 cf 3c 09 4d 94 3d 2a 2c f2 3d
       -0.15935567 0.02533099 0.07241256 0.1182483
000010 dd 04 c4 3c af 75 03 3e aa 49 51 3a 1a 98 6c 3d
       0.0239281 0.12837861 0.0007983694 0.057762243
000020 d7 f3 2e 3d bf e3 f6 bd 39 d0 f1 bc cb ea ea bd
       0.042713013 -0.12055158 -0.029518234 -0.114705645
000030 2d 9d 02 3e 76 e5 98 3d 3e cf 85 bd 4a 20 be bc
       0.1275527 0.07465641 -0.06533669 -0.023208756
000040 42 ba 1a 3d 71 c6 13 be ca 0e 4f 39 b9 e1 98 3d
       0.037775286 -0.14431168 0.00019746568 0.07464928
000050 86 db 5b 3c 7a 33 03 bc fc c3 d4 3d d1 ba 89 3d
       0.013419038 -0.008007878 0.103889436 0.067250855
000060 aa dc 16 be cf 1e c1 3d f8 bb 04 be cd 72 b7 3d
       -0.14732614 0.094297044 -0.1296233 0.089574434
000070 95 5f 0e 3e 2f 96 03 3c 35 a3 4d bd 15 24 a7 bd
       0.13903649 0.008031412 -0.050204474 -0.08161179

linOSS_layers.1.B.weight f4 [32, 32]
000000 77 24 f0 3c ab c0 19 be f1 59 1d 3e c4 b5 07 3e
       0.029314263 -0.15014903 0.15366341 0.13252932
000010 63 0a 3d 3d 55 60 9d 3d 8e 6a 67 3d a5 53 0a 3e
       0.046152484 0.076843895 0.056498103 0.1350847
000020 e3 06 24 be 81 66 cd bd 91 79 60 bc 81 50 c8 bc
       -0.16018252 -0.10029317 -0.013700859 -0.02445245
000030 2f 6f dc bd 58 85 23 be 00 37 00 be eb 54 97 bc
       -0.10763394 -0.15968835 -0.12520981 -0.01847311
000040 91 9b 0f 3e f4 04 dc 3d 42 f6 29 3d 33 64 ca bd
       0.14024188 0.10743132 0.041494615 -0.09882393
000050 a7 e8 7b bd bb 69 0e 3c 9b b7 1d be 89 22 cc ba
       -0.06150117 0.0086922 -0.15402071 -0.0015574257
000060 07 e2 da 3c 40 97 19 3e c7 8a 17 bd b4 9a 27 3e
       0.026719106 0.14999104 -0.036997583 0.16367608
000070 c7 3d b3 3b b4 26 e7 bd f9 02 21 3e 7e e1 12 3e
       0.005470011 -0.11286679 0.1572379 0.14343831
000080 22 fe 04 be 92 14 be bd 31 4a 99 3d 06 cc ca bd
       -0.12987569 -0.09281267 0.07484854 -0.09902196
000090 e5 26 e2 3d 31 ec 98 bd 74 d1 39 bd 9a 1e 29 bd
       0.11042575 -0.07466925 -0.045365766 -0.04128895
0000a0 70 9f 22 3e e0 c5 4d bd 83 48 ce bc 23 1a c7 3d
       0.15881133 -0.050237536 -0.02518106 0.09721782
0000b0 55 af e3 bd e3 56 4d b6 8a c9 01 be d5 01 1d be
       -0.11117426 -3.0597955e-06 -0.12674537 -0.1533273
0000c0 9e 52 fe bc 77 fb 33 3c ca 4f 10 3e 0e 85 23 be
       -0.031045254 0.010985247 0.14092937 -0.15968725
0000d0 f0 9a 29 bd 69 03 18 3d a4 23 6a 3d f9 94 bf 3d
       -0.041407526 0.037112627 0.057162896 0.09354586
0000e0 d8 82 07 be 94 ac 0a bd 2f 3d 01 3d f8 0f 07 be
       -0.13233507 -0.03385599 0.03155249 -0.13189685
0000f0 28 95 a2 3d b7 a5 22 be 87 ee cd 3d 78 67 44 3d
       0.079386055 -0.15883528 0.10055261 0.047950238
000100 2e f5 26 bd 09 e8 43 3d d9 43 0f 3e 24 47 f6 3d
       -0.040761165 0.047828708 0.13990726 0.12025288
000110 a5 a2 c7 3d b2 d0 be bd 1b 54 29 3d bd a0 fb 3d
       0.09747819 -0.09317149 0.041339975 0.12286518
000120 29 ce b4 3c b2 b0 db 3d e1 8e cc bd 7f 6d ea 3d
       0.022070961 0.10727061 -0.099881895 0.11446666
000130 e9 49 f5 b9 d4 57 18 be 32 34 15 bd 58 ee 15 3e
       -0.0004678511 -0.14877254 -0.03642673 0.14641702
000140 56 cf 55 bd 7c 58 b0 bc 7a 48 7a bd 6b f3 b0 bd
       -0.052199684 -0.021526568 -0.061104275 -0.08640178
000150 8a 6a b0 3c 0a aa c7 3d 25 b3 48 3c 03 4c 66 bb
       0.021535177 0.09749229 0.012249743 -0.0035140521
000160 bf 14 45 3b b7 6d fb bd 69 e0 aa bd 87 0b 06 3b
       0.003007218 -0.12276786 -0.08343584 0.0020453648
000170 f7 a4 06 be f7 79 9f 3d b7 4d 93 3c cd 31 1d 35
       -0.13148867 0.07786935 0.017981393 5.855953e-07
000180 94 99 7c bb 98 d5 0e 3e 7c 22 1b 3e ec f0 9c 3d
       -0.0038543688 0.13948667 0.15149873 0.0766314
000190 55 f8 9f 3d 7f b7 9b bd 7b 4a 80 3d 1c db e0 bd
       0.078110375 -0.076033585 0.06264206 -0.10979292
0001a0 6b b7 88 3d 5f 0a ed bd 37 03 8b b6 ba 5a f2 3d
       0.06675609 -0.11574244 -4.142897e-06 0.11833711
0001b0 2a 66 dc 3d f8 fe 15 3e e9 e6 4f 3d 86 be 71 3d
       0.10761674 0.14648044 0.050757322 0.059019588
0001c0 fc 97 1b 3d 0c 51 f4 3d 35 1a aa 3d 40 da 2e 3d
       0.03798674 0.11929521 0.0830578 0.04268861
0001d0 c1 80 55 bd f6 62 9b bd eb a4 0c bd 15 f6 98 3d
       -0.052124742 -0.07587235 -0.034336966 0.074688114
0001e0 20 2c b1 bd fb 32 1f 3d 55 50 14 3e 1d 39 0f 3e
       -0.08650994 0.03886698 0.14483769 0.1398663
0001f0 51 7f f6 bd e0 a9 27 3d 91 ba d8 3d 50 5b 1a be
       -0.120360024 0.04093349 0.1058246 -0.15073895
000200 d8 65 d3 3d c9 9b cd bd 0e ba f1 bd 86 bb 85 bd
       0.103221595 -0.10039479 -0.11803065 -0.06529908
000210 b4 13 69 bd d0 f7 81 bd 1e b7 29 3d 57 2f 71 3d
       -0.056903556 -0.063460946 0.0414344 0.058883037
000220 e7 14 72 3d 1d f0 e5 3d 3e 15 d1 bd ff ce 21 be
       0.059101965 0.112274386 -0.1020913 -0.15801619
000230 b9 2c 07 be 60 14 b3 bd ad cf 91 bd 20 53 8b 3d
       -0.13200654 -0.087441206 -0.07119689 0.06802964
000240 b3 f2 f1 bd c2 a6 f4 bd 1b fe ad 3d 85 60 d2 bd
       -0.11813869 -0.11945869 0.084957324 -0.10272316
000250 76 90 c4 3c b3 fb ff bd 3a fa 6c 3d 4a 40 ce 3d
       0.023994666 -0.1249918 0.057855822 0.10070856
000260 05 36 0e be 9c 34 4f 3d ce ed a9 bd b3 c7 d1 3d
       -0.13887794 0.05058728 -0.08297311 0.10243168
000270 9f be 18 3e 92 a8 0e be 77 93 67 3d 9c 7c e0 3d
       0.14916466 -0.13931492 0.056537118 0.10961267
000280 9c 82 1a 3e 6b 5e fd 3d c6 6d d1 3c 6e 51 4a 3b
       0.15088886 0.123715244 0.02556504 0.003087129
000290 c2 b0 de 3c a1 e3 c3 bd 47 61 d0 bc 89 2a b3 37
       0.027183894 -0.09564901 -0.02543701 2.135827e-05
0002a0 78 1c d1 bd 17 34 ba ba 0a 7d 70 bc c0 57 56 bd
       -0.10210508 -0.0014206198 -0.014678249 -0.05232978
0002b0 8b 81 37 bd 12 33 2a be 70 6f 22 3e 61 9c 9e 3d
       -0.044801276 -0.16621044 0.15862823 0.07744671
0002c0 6f b2 f1 3d f5 08 10 be ac 23 27 be bb 2d f9 3d
       0.11801612 -0.14065917 -0.16322201 0.121669255
0002d0 b5 b9 b3 bc 77 1e 98 3c b9 b0 a1 3d 7b 27 7a 3b
       -0.021939138 0.018569214 0.07895035 0.0038170505
0002e0 37 81 f3 b9 69 2c c3 3d e6 91 06 3e 8c 1c 23 bd
       -0.00046444844 0.09529955 0.13141593 -0.039822146
0002f0 b4 7d 10 be 5f 9d b2 bd a8 ae ee 3d 34 84 ec 3b
       -0.14110452 -0.087214224 0.11654407 0.0072179083
000300 9d f0 10 3e 0d 26 56 bd 11 72 21 be c8 f2 39 3d
       0.14154287 -0.05228238 -0.15766169 0.04539755
000310 93 8a 86 bd c1 7e c4 bd 42 bc cd 3d 1b 0b 97 3b
       -0.065694 -0.09594489 0.10045673 0.004609478
000320 15 95 e4 bb db 35 26 3e fd a1 13 3e ba d4 09 be
       -0.00697578 0.16231482 0.14417262 -0.13460055
000330 87 55 1c be f4 2f 9f bd 75 82 02 be 6f 6e aa bd
       -0.15267001 -0.07772818 -0.12745078 -0.08321845
000340 e5 3c e0 3d 82 e4 dc bd 27 f4 1b 3e c8 fe 3a 3d
       0.10949115 -0.10785772 0.15229855 0.045653135
000350 4c 2b ae 3a 2c 55 ad 3c 90 d3 e5 3c 1a fe 41 3d
       0.001328805 0.021158777 0.028054982 0.04736147
000360 dc 2c 09 be 6b c1 cc 37 24 2a dc 3d f1 c2 29 3e
       -0.13396019 2.4408762e-05 0.10750225 0.1657827
000370 1e 55 1c bb b4 96 ee bd 08 98 92 3d 10 8e 1b be
       -0.0023854445 -0.11649838 0.07157904 -0.15190911
000380 9d 48 17 3e 2a 8c ca 3d 25 4a 8f 3d f6 cd 7a 3c
       0.14773794 0.098900154 0.06996564 0.015307894
000390 35 21 f3 3d 3d 1b 7d bd 0c ef 0c be 99 38 b4 bd
       0.11871568 -0.061793555 -0.13763064 -0.08799858
0003a0 db 59 f9 3d f7 17 a1 bd d3 4b 06 be ae 22 f1 3c
       0.12175342 -0.07865899 -0.13114862 0.029435482
0003b0 2f eb cc bd cd dd 9f ba f6 ce d1 bd 97 21 e6 3c
       -0.10005795 -0.0012196839 -0.10244553 0.028092189
0003c0 b9 68 a2 bc 02 04 6e 3c 5b 8d 93 3d cb 1f d5 bd
       -0.019825326 0.014527323 0.07204696 -0.10406455
0003d0 89 c6 4f bd 4b 68 dd bd 7f b0 0c 3e 4c 11 5c bd
       -0.050726447 -0.10810908 0.13739203 -0.053727433
0003e0 27 69 69 3d 85 ec 00 3d 68 82 28 be 13 fb ec bd
       0.056985047 0.031475563 -0.16455996 -0.11571326
0003f0 33 9d 13 bd 78 bc 00 be 1c 16 ac 3d 2f 99 cf 3d
       -0.03603859 -0.12571895 0.084026545 0.10136639

linOSS_layers.1.B.bias f4 [32]
000000 29 07 f1 bd 0d 65 2a be 6b 45 03 be 09 ad 19 bd
       -0.11768944 -0.1664011 -0.1281945 -0.037518535
000010 70 a1 c2 ba ce e9 20 3d 8a 6a 06 3d 12 48 cd 3c
       -0.0014849138 0.039285474 0.032816447 0.02505878
000020 c6 47 03 be c1 26 24 3e 7a e0 11 3e 52 8e 9c 3d
       -0.12820348 0.16030408 0.14245787 0.07644333
000030 4c 40 f0 3c 35 3f b6 bd fd d2 a7 3b f3 52 ee bd
       0.029327534 -0.088987745 0.0051215873 -0.11636915
000040 cc 4f 1c 3e 72 b3 16 be e0 02 10 3e 79 5a 20 3e
       0.15264815 -0.1471689 0.14063597 0.15659513
000050 b0 70 9b bd 59 76 17 be 9e 48 58 3d fd e5 00 be
       -0.07589853 -0.1479124 0.05280363 -0.12587734
000060 eb f1 1c be 5b 28 c6 bd 84 e5 eb 3d 09 f1 ce bd
       -0.1532666 -0.09675666 0.11518386 -0.101045676
000070 31 69 7a bd 58 41 7e bd ab 46 ed 3d c0 3c 71 3d
       -0.061135475 -0.062074035 0.115857445 0.058895826
